{'': SiameseNetwork(
  (cnn1): EfficientNet(
    (features): Sequential(
      (0): ConvNormActivation(
        (0): Conv2d(3, 32, kernel_size=(3, 3), stride=(2, 2), padding=(1, 1), bias=False)
        (1): BatchNorm2d(32, eps=1e-05, momentum=0.1, affine=True, track_running_stats=True)
        (2): SiLU(inplace=True)
      )
      (1): Sequential(
        (0): MBConv(
          (block): Sequential(
            (0): ConvNormActivation(
              (0): Conv2d(32, 32, kernel_size=(3, 3), stride=(1, 1), padding=(1, 1), groups=32, bias=False)
              (1): BatchNorm2d(32, eps=1e-05, momentum=0.1, affine=True, track_running_stats=True)
              (2): SiLU(inplace=True)
            )
            (1): SqueezeExcitation(
              (avgpool): AdaptiveAvgPool2d(output_size=1)
              (fc1): Conv2d(32, 8, kernel_size=(1, 1), stride=(1, 1))
              (fc2): Conv2d(8, 32, kernel_size=(1, 1), stride=(1, 1))
              (activation): SiLU(inplace=True)
              (scale_activation): Sigmoid()
            )
            (2): ConvNormActivation(
              (0): Conv2d(32, 16, kernel_size=(1, 1), stride=(1, 1), bias=False)
              (1): BatchNorm2d(16, eps=1e-05, momentum=0.1, affine=True, track_running_stats=True)
            )
          )
          (stochastic_depth): StochasticDepth(p=0.0, mode=row)
        )
        (1): MBConv(
          (block): Sequential(
            (0): ConvNormActivation(
              (0): Conv2d(16, 16, kernel_size=(3, 3), stride=(1, 1), padding=(1, 1), groups=16, bias=False)
              (1): BatchNorm2d(16, eps=1e-05, momentum=0.1, affine=True, track_running_stats=True)
              (2): SiLU(inplace=True)
            )
            (1): SqueezeExcitation(
              (avgpool): AdaptiveAvgPool2d(output_size=1)
              (fc1): Conv2d(16, 4, kernel_size=(1, 1), stride=(1, 1))
              (fc2): Conv2d(4, 16, kernel_size=(1, 1), stride=(1, 1))
              (activation): SiLU(inplace=True)
              (scale_activation): Sigmoid()
            )
            (2): ConvNormActivation(
              (0): Conv2d(16, 16, kernel_size=(1, 1), stride=(1, 1), bias=False)
              (1): BatchNorm2d(16, eps=1e-05, momentum=0.1, affine=True, track_running_stats=True)
            )
          )
          (stochastic_depth): StochasticDepth(p=0.008695652173913044, mode=row)
        )
      )
      (2): Sequential(
        (0): MBConv(
          (block): Sequential(
            (0): ConvNormActivation(
              (0): Conv2d(16, 96, kernel_size=(1, 1), stride=(1, 1), bias=False)
              (1): BatchNorm2d(96, eps=1e-05, momentum=0.1, affine=True, track_running_stats=True)
              (2): SiLU(inplace=True)
            )
            (1): ConvNormActivation(
              (0): Conv2d(96, 96, kernel_size=(3, 3), stride=(2, 2), padding=(1, 1), groups=96, bias=False)
              (1): BatchNorm2d(96, eps=1e-05, momentum=0.1, affine=True, track_running_stats=True)
              (2): SiLU(inplace=True)
            )
            (2): SqueezeExcitation(
              (avgpool): AdaptiveAvgPool2d(output_size=1)
              (fc1): Conv2d(96, 4, kernel_size=(1, 1), stride=(1, 1))
              (fc2): Conv2d(4, 96, kernel_size=(1, 1), stride=(1, 1))
              (activation): SiLU(inplace=True)
              (scale_activation): Sigmoid()
            )
            (3): ConvNormActivation(
              (0): Conv2d(96, 24, kernel_size=(1, 1), stride=(1, 1), bias=False)
              (1): BatchNorm2d(24, eps=1e-05, momentum=0.1, affine=True, track_running_stats=True)
            )
          )
          (stochastic_depth): StochasticDepth(p=0.017391304347826087, mode=row)
        )
        (1): MBConv(
          (block): Sequential(
            (0): ConvNormActivation(
              (0): Conv2d(24, 144, kernel_size=(1, 1), stride=(1, 1), bias=False)
              (1): BatchNorm2d(144, eps=1e-05, momentum=0.1, affine=True, track_running_stats=True)
              (2): SiLU(inplace=True)
            )
            (1): ConvNormActivation(
              (0): Conv2d(144, 144, kernel_size=(3, 3), stride=(1, 1), padding=(1, 1), groups=144, bias=False)
              (1): BatchNorm2d(144, eps=1e-05, momentum=0.1, affine=True, track_running_stats=True)
              (2): SiLU(inplace=True)
            )
            (2): SqueezeExcitation(
              (avgpool): AdaptiveAvgPool2d(output_size=1)
              (fc1): Conv2d(144, 6, kernel_size=(1, 1), stride=(1, 1))
              (fc2): Conv2d(6, 144, kernel_size=(1, 1), stride=(1, 1))
              (activation): SiLU(inplace=True)
              (scale_activation): Sigmoid()
            )
            (3): ConvNormActivation(
              (0): Conv2d(144, 24, kernel_size=(1, 1), stride=(1, 1), bias=False)
              (1): BatchNorm2d(24, eps=1e-05, momentum=0.1, affine=True, track_running_stats=True)
            )
          )
          (stochastic_depth): StochasticDepth(p=0.026086956521739136, mode=row)
        )
        (2): MBConv(
          (block): Sequential(
            (0): ConvNormActivation(
              (0): Conv2d(24, 144, kernel_size=(1, 1), stride=(1, 1), bias=False)
              (1): BatchNorm2d(144, eps=1e-05, momentum=0.1, affine=True, track_running_stats=True)
              (2): SiLU(inplace=True)
            )
            (1): ConvNormActivation(
              (0): Conv2d(144, 144, kernel_size=(3, 3), stride=(1, 1), padding=(1, 1), groups=144, bias=False)
              (1): BatchNorm2d(144, eps=1e-05, momentum=0.1, affine=True, track_running_stats=True)
              (2): SiLU(inplace=True)
            )
            (2): SqueezeExcitation(
              (avgpool): AdaptiveAvgPool2d(output_size=1)
              (fc1): Conv2d(144, 6, kernel_size=(1, 1), stride=(1, 1))
              (fc2): Conv2d(6, 144, kernel_size=(1, 1), stride=(1, 1))
              (activation): SiLU(inplace=True)
              (scale_activation): Sigmoid()
            )
            (3): ConvNormActivation(
              (0): Conv2d(144, 24, kernel_size=(1, 1), stride=(1, 1), bias=False)
              (1): BatchNorm2d(24, eps=1e-05, momentum=0.1, affine=True, track_running_stats=True)
            )
          )
          (stochastic_depth): StochasticDepth(p=0.034782608695652174, mode=row)
        )
      )
      (3): Sequential(
        (0): MBConv(
          (block): Sequential(
            (0): ConvNormActivation(
              (0): Conv2d(24, 144, kernel_size=(1, 1), stride=(1, 1), bias=False)
              (1): BatchNorm2d(144, eps=1e-05, momentum=0.1, affine=True, track_running_stats=True)
              (2): SiLU(inplace=True)
            )
            (1): ConvNormActivation(
              (0): Conv2d(144, 144, kernel_size=(5, 5), stride=(2, 2), padding=(2, 2), groups=144, bias=False)
              (1): BatchNorm2d(144, eps=1e-05, momentum=0.1, affine=True, track_running_stats=True)
              (2): SiLU(inplace=True)
            )
            (2): SqueezeExcitation(
              (avgpool): AdaptiveAvgPool2d(output_size=1)
              (fc1): Conv2d(144, 6, kernel_size=(1, 1), stride=(1, 1))
              (fc2): Conv2d(6, 144, kernel_size=(1, 1), stride=(1, 1))
              (activation): SiLU(inplace=True)
              (scale_activation): Sigmoid()
            )
            (3): ConvNormActivation(
              (0): Conv2d(144, 40, kernel_size=(1, 1), stride=(1, 1), bias=False)
              (1): BatchNorm2d(40, eps=1e-05, momentum=0.1, affine=True, track_running_stats=True)
            )
          )
          (stochastic_depth): StochasticDepth(p=0.043478260869565216, mode=row)
        )
        (1): MBConv(
          (block): Sequential(
            (0): ConvNormActivation(
              (0): Conv2d(40, 240, kernel_size=(1, 1), stride=(1, 1), bias=False)
              (1): BatchNorm2d(240, eps=1e-05, momentum=0.1, affine=True, track_running_stats=True)
              (2): SiLU(inplace=True)
            )
            (1): ConvNormActivation(
              (0): Conv2d(240, 240, kernel_size=(5, 5), stride=(1, 1), padding=(2, 2), groups=240, bias=False)
              (1): BatchNorm2d(240, eps=1e-05, momentum=0.1, affine=True, track_running_stats=True)
              (2): SiLU(inplace=True)
            )
            (2): SqueezeExcitation(
              (avgpool): AdaptiveAvgPool2d(output_size=1)
              (fc1): Conv2d(240, 10, kernel_size=(1, 1), stride=(1, 1))
              (fc2): Conv2d(10, 240, kernel_size=(1, 1), stride=(1, 1))
              (activation): SiLU(inplace=True)
              (scale_activation): Sigmoid()
            )
            (3): ConvNormActivation(
              (0): Conv2d(240, 40, kernel_size=(1, 1), stride=(1, 1), bias=False)
              (1): BatchNorm2d(40, eps=1e-05, momentum=0.1, affine=True, track_running_stats=True)
            )
          )
          (stochastic_depth): StochasticDepth(p=0.05217391304347827, mode=row)
        )
        (2): MBConv(
          (block): Sequential(
            (0): ConvNormActivation(
              (0): Conv2d(40, 240, kernel_size=(1, 1), stride=(1, 1), bias=False)
              (1): BatchNorm2d(240, eps=1e-05, momentum=0.1, affine=True, track_running_stats=True)
              (2): SiLU(inplace=True)
            )
            (1): ConvNormActivation(
              (0): Conv2d(240, 240, kernel_size=(5, 5), stride=(1, 1), padding=(2, 2), groups=240, bias=False)
              (1): BatchNorm2d(240, eps=1e-05, momentum=0.1, affine=True, track_running_stats=True)
              (2): SiLU(inplace=True)
            )
            (2): SqueezeExcitation(
              (avgpool): AdaptiveAvgPool2d(output_size=1)
              (fc1): Conv2d(240, 10, kernel_size=(1, 1), stride=(1, 1))
              (fc2): Conv2d(10, 240, kernel_size=(1, 1), stride=(1, 1))
              (activation): SiLU(inplace=True)
              (scale_activation): Sigmoid()
            )
            (3): ConvNormActivation(
              (0): Conv2d(240, 40, kernel_size=(1, 1), stride=(1, 1), bias=False)
              (1): BatchNorm2d(40, eps=1e-05, momentum=0.1, affine=True, track_running_stats=True)
            )
          )
          (stochastic_depth): StochasticDepth(p=0.06086956521739131, mode=row)
        )
      )
      (4): Sequential(
        (0): MBConv(
          (block): Sequential(
            (0): ConvNormActivation(
              (0): Conv2d(40, 240, kernel_size=(1, 1), stride=(1, 1), bias=False)
              (1): BatchNorm2d(240, eps=1e-05, momentum=0.1, affine=True, track_running_stats=True)
              (2): SiLU(inplace=True)
            )
            (1): ConvNormActivation(
              (0): Conv2d(240, 240, kernel_size=(3, 3), stride=(2, 2), padding=(1, 1), groups=240, bias=False)
              (1): BatchNorm2d(240, eps=1e-05, momentum=0.1, affine=True, track_running_stats=True)
              (2): SiLU(inplace=True)
            )
            (2): SqueezeExcitation(
              (avgpool): AdaptiveAvgPool2d(output_size=1)
              (fc1): Conv2d(240, 10, kernel_size=(1, 1), stride=(1, 1))
              (fc2): Conv2d(10, 240, kernel_size=(1, 1), stride=(1, 1))
              (activation): SiLU(inplace=True)
              (scale_activation): Sigmoid()
            )
            (3): ConvNormActivation(
              (0): Conv2d(240, 80, kernel_size=(1, 1), stride=(1, 1), bias=False)
              (1): BatchNorm2d(80, eps=1e-05, momentum=0.1, affine=True, track_running_stats=True)
            )
          )
          (stochastic_depth): StochasticDepth(p=0.06956521739130435, mode=row)
        )
        (1): MBConv(
          (block): Sequential(
            (0): ConvNormActivation(
              (0): Conv2d(80, 480, kernel_size=(1, 1), stride=(1, 1), bias=False)
              (1): BatchNorm2d(480, eps=1e-05, momentum=0.1, affine=True, track_running_stats=True)
              (2): SiLU(inplace=True)
            )
            (1): ConvNormActivation(
              (0): Conv2d(480, 480, kernel_size=(3, 3), stride=(1, 1), padding=(1, 1), groups=480, bias=False)
              (1): BatchNorm2d(480, eps=1e-05, momentum=0.1, affine=True, track_running_stats=True)
              (2): SiLU(inplace=True)
            )
            (2): SqueezeExcitation(
              (avgpool): AdaptiveAvgPool2d(output_size=1)
              (fc1): Conv2d(480, 20, kernel_size=(1, 1), stride=(1, 1))
              (fc2): Conv2d(20, 480, kernel_size=(1, 1), stride=(1, 1))
              (activation): SiLU(inplace=True)
              (scale_activation): Sigmoid()
            )
            (3): ConvNormActivation(
              (0): Conv2d(480, 80, kernel_size=(1, 1), stride=(1, 1), bias=False)
              (1): BatchNorm2d(80, eps=1e-05, momentum=0.1, affine=True, track_running_stats=True)
            )
          )
          (stochastic_depth): StochasticDepth(p=0.0782608695652174, mode=row)
        )
        (2): MBConv(
          (block): Sequential(
            (0): ConvNormActivation(
              (0): Conv2d(80, 480, kernel_size=(1, 1), stride=(1, 1), bias=False)
              (1): BatchNorm2d(480, eps=1e-05, momentum=0.1, affine=True, track_running_stats=True)
              (2): SiLU(inplace=True)
            )
            (1): ConvNormActivation(
              (0): Conv2d(480, 480, kernel_size=(3, 3), stride=(1, 1), padding=(1, 1), groups=480, bias=False)
              (1): BatchNorm2d(480, eps=1e-05, momentum=0.1, affine=True, track_running_stats=True)
              (2): SiLU(inplace=True)
            )
            (2): SqueezeExcitation(
              (avgpool): AdaptiveAvgPool2d(output_size=1)
              (fc1): Conv2d(480, 20, kernel_size=(1, 1), stride=(1, 1))
              (fc2): Conv2d(20, 480, kernel_size=(1, 1), stride=(1, 1))
              (activation): SiLU(inplace=True)
              (scale_activation): Sigmoid()
            )
            (3): ConvNormActivation(
              (0): Conv2d(480, 80, kernel_size=(1, 1), stride=(1, 1), bias=False)
              (1): BatchNorm2d(80, eps=1e-05, momentum=0.1, affine=True, track_running_stats=True)
            )
          )
          (stochastic_depth): StochasticDepth(p=0.08695652173913043, mode=row)
        )
        (3): MBConv(
          (block): Sequential(
            (0): ConvNormActivation(
              (0): Conv2d(80, 480, kernel_size=(1, 1), stride=(1, 1), bias=False)
              (1): BatchNorm2d(480, eps=1e-05, momentum=0.1, affine=True, track_running_stats=True)
              (2): SiLU(inplace=True)
            )
            (1): ConvNormActivation(
              (0): Conv2d(480, 480, kernel_size=(3, 3), stride=(1, 1), padding=(1, 1), groups=480, bias=False)
              (1): BatchNorm2d(480, eps=1e-05, momentum=0.1, affine=True, track_running_stats=True)
              (2): SiLU(inplace=True)
            )
            (2): SqueezeExcitation(
              (avgpool): AdaptiveAvgPool2d(output_size=1)
              (fc1): Conv2d(480, 20, kernel_size=(1, 1), stride=(1, 1))
              (fc2): Conv2d(20, 480, kernel_size=(1, 1), stride=(1, 1))
              (activation): SiLU(inplace=True)
              (scale_activation): Sigmoid()
            )
            (3): ConvNormActivation(
              (0): Conv2d(480, 80, kernel_size=(1, 1), stride=(1, 1), bias=False)
              (1): BatchNorm2d(80, eps=1e-05, momentum=0.1, affine=True, track_running_stats=True)
            )
          )
          (stochastic_depth): StochasticDepth(p=0.09565217391304348, mode=row)
        )
      )
      (5): Sequential(
        (0): MBConv(
          (block): Sequential(
            (0): ConvNormActivation(
              (0): Conv2d(80, 480, kernel_size=(1, 1), stride=(1, 1), bias=False)
              (1): BatchNorm2d(480, eps=1e-05, momentum=0.1, affine=True, track_running_stats=True)
              (2): SiLU(inplace=True)
            )
            (1): ConvNormActivation(
              (0): Conv2d(480, 480, kernel_size=(5, 5), stride=(1, 1), padding=(2, 2), groups=480, bias=False)
              (1): BatchNorm2d(480, eps=1e-05, momentum=0.1, affine=True, track_running_stats=True)
              (2): SiLU(inplace=True)
            )
            (2): SqueezeExcitation(
              (avgpool): AdaptiveAvgPool2d(output_size=1)
              (fc1): Conv2d(480, 20, kernel_size=(1, 1), stride=(1, 1))
              (fc2): Conv2d(20, 480, kernel_size=(1, 1), stride=(1, 1))
              (activation): SiLU(inplace=True)
              (scale_activation): Sigmoid()
            )
            (3): ConvNormActivation(
              (0): Conv2d(480, 112, kernel_size=(1, 1), stride=(1, 1), bias=False)
              (1): BatchNorm2d(112, eps=1e-05, momentum=0.1, affine=True, track_running_stats=True)
            )
          )
          (stochastic_depth): StochasticDepth(p=0.10434782608695654, mode=row)
        )
        (1): MBConv(
          (block): Sequential(
            (0): ConvNormActivation(
              (0): Conv2d(112, 672, kernel_size=(1, 1), stride=(1, 1), bias=False)
              (1): BatchNorm2d(672, eps=1e-05, momentum=0.1, affine=True, track_running_stats=True)
              (2): SiLU(inplace=True)
            )
            (1): ConvNormActivation(
              (0): Conv2d(672, 672, kernel_size=(5, 5), stride=(1, 1), padding=(2, 2), groups=672, bias=False)
              (1): BatchNorm2d(672, eps=1e-05, momentum=0.1, affine=True, track_running_stats=True)
              (2): SiLU(inplace=True)
            )
            (2): SqueezeExcitation(
              (avgpool): AdaptiveAvgPool2d(output_size=1)
              (fc1): Conv2d(672, 28, kernel_size=(1, 1), stride=(1, 1))
              (fc2): Conv2d(28, 672, kernel_size=(1, 1), stride=(1, 1))
              (activation): SiLU(inplace=True)
              (scale_activation): Sigmoid()
            )
            (3): ConvNormActivation(
              (0): Conv2d(672, 112, kernel_size=(1, 1), stride=(1, 1), bias=False)
              (1): BatchNorm2d(112, eps=1e-05, momentum=0.1, affine=True, track_running_stats=True)
            )
          )
          (stochastic_depth): StochasticDepth(p=0.11304347826086956, mode=row)
        )
        (2): MBConv(
          (block): Sequential(
            (0): ConvNormActivation(
              (0): Conv2d(112, 672, kernel_size=(1, 1), stride=(1, 1), bias=False)
              (1): BatchNorm2d(672, eps=1e-05, momentum=0.1, affine=True, track_running_stats=True)
              (2): SiLU(inplace=True)
            )
            (1): ConvNormActivation(
              (0): Conv2d(672, 672, kernel_size=(5, 5), stride=(1, 1), padding=(2, 2), groups=672, bias=False)
              (1): BatchNorm2d(672, eps=1e-05, momentum=0.1, affine=True, track_running_stats=True)
              (2): SiLU(inplace=True)
            )
            (2): SqueezeExcitation(
              (avgpool): AdaptiveAvgPool2d(output_size=1)
              (fc1): Conv2d(672, 28, kernel_size=(1, 1), stride=(1, 1))
              (fc2): Conv2d(28, 672, kernel_size=(1, 1), stride=(1, 1))
              (activation): SiLU(inplace=True)
              (scale_activation): Sigmoid()
            )
            (3): ConvNormActivation(
              (0): Conv2d(672, 112, kernel_size=(1, 1), stride=(1, 1), bias=False)
              (1): BatchNorm2d(112, eps=1e-05, momentum=0.1, affine=True, track_running_stats=True)
            )
          )
          (stochastic_depth): StochasticDepth(p=0.12173913043478261, mode=row)
        )
        (3): MBConv(
          (block): Sequential(
            (0): ConvNormActivation(
              (0): Conv2d(112, 672, kernel_size=(1, 1), stride=(1, 1), bias=False)
              (1): BatchNorm2d(672, eps=1e-05, momentum=0.1, affine=True, track_running_stats=True)
              (2): SiLU(inplace=True)
            )
            (1): ConvNormActivation(
              (0): Conv2d(672, 672, kernel_size=(5, 5), stride=(1, 1), padding=(2, 2), groups=672, bias=False)
              (1): BatchNorm2d(672, eps=1e-05, momentum=0.1, affine=True, track_running_stats=True)
              (2): SiLU(inplace=True)
            )
            (2): SqueezeExcitation(
              (avgpool): AdaptiveAvgPool2d(output_size=1)
              (fc1): Conv2d(672, 28, kernel_size=(1, 1), stride=(1, 1))
              (fc2): Conv2d(28, 672, kernel_size=(1, 1), stride=(1, 1))
              (activation): SiLU(inplace=True)
              (scale_activation): Sigmoid()
            )
            (3): ConvNormActivation(
              (0): Conv2d(672, 112, kernel_size=(1, 1), stride=(1, 1), bias=False)
              (1): BatchNorm2d(112, eps=1e-05, momentum=0.1, affine=True, track_running_stats=True)
            )
          )
          (stochastic_depth): StochasticDepth(p=0.13043478260869565, mode=row)
        )
      )
      (6): Sequential(
        (0): MBConv(
          (block): Sequential(
            (0): ConvNormActivation(
              (0): Conv2d(112, 672, kernel_size=(1, 1), stride=(1, 1), bias=False)
              (1): BatchNorm2d(672, eps=1e-05, momentum=0.1, affine=True, track_running_stats=True)
              (2): SiLU(inplace=True)
            )
            (1): ConvNormActivation(
              (0): Conv2d(672, 672, kernel_size=(5, 5), stride=(2, 2), padding=(2, 2), groups=672, bias=False)
              (1): BatchNorm2d(672, eps=1e-05, momentum=0.1, affine=True, track_running_stats=True)
              (2): SiLU(inplace=True)
            )
            (2): SqueezeExcitation(
              (avgpool): AdaptiveAvgPool2d(output_size=1)
              (fc1): Conv2d(672, 28, kernel_size=(1, 1), stride=(1, 1))
              (fc2): Conv2d(28, 672, kernel_size=(1, 1), stride=(1, 1))
              (activation): SiLU(inplace=True)
              (scale_activation): Sigmoid()
            )
            (3): ConvNormActivation(
              (0): Conv2d(672, 192, kernel_size=(1, 1), stride=(1, 1), bias=False)
              (1): BatchNorm2d(192, eps=1e-05, momentum=0.1, affine=True, track_running_stats=True)
            )
          )
          (stochastic_depth): StochasticDepth(p=0.1391304347826087, mode=row)
        )
        (1): MBConv(
          (block): Sequential(
            (0): ConvNormActivation(
              (0): Conv2d(192, 1152, kernel_size=(1, 1), stride=(1, 1), bias=False)
              (1): BatchNorm2d(1152, eps=1e-05, momentum=0.1, affine=True, track_running_stats=True)
              (2): SiLU(inplace=True)
            )
            (1): ConvNormActivation(
              (0): Conv2d(1152, 1152, kernel_size=(5, 5), stride=(1, 1), padding=(2, 2), groups=1152, bias=False)
              (1): BatchNorm2d(1152, eps=1e-05, momentum=0.1, affine=True, track_running_stats=True)
              (2): SiLU(inplace=True)
            )
            (2): SqueezeExcitation(
              (avgpool): AdaptiveAvgPool2d(output_size=1)
              (fc1): Conv2d(1152, 48, kernel_size=(1, 1), stride=(1, 1))
              (fc2): Conv2d(48, 1152, kernel_size=(1, 1), stride=(1, 1))
              (activation): SiLU(inplace=True)
              (scale_activation): Sigmoid()
            )
            (3): ConvNormActivation(
              (0): Conv2d(1152, 192, kernel_size=(1, 1), stride=(1, 1), bias=False)
              (1): BatchNorm2d(192, eps=1e-05, momentum=0.1, affine=True, track_running_stats=True)
            )
          )
          (stochastic_depth): StochasticDepth(p=0.14782608695652175, mode=row)
        )
        (2): MBConv(
          (block): Sequential(
            (0): ConvNormActivation(
              (0): Conv2d(192, 1152, kernel_size=(1, 1), stride=(1, 1), bias=False)
              (1): BatchNorm2d(1152, eps=1e-05, momentum=0.1, affine=True, track_running_stats=True)
              (2): SiLU(inplace=True)
            )
            (1): ConvNormActivation(
              (0): Conv2d(1152, 1152, kernel_size=(5, 5), stride=(1, 1), padding=(2, 2), groups=1152, bias=False)
              (1): BatchNorm2d(1152, eps=1e-05, momentum=0.1, affine=True, track_running_stats=True)
              (2): SiLU(inplace=True)
            )
            (2): SqueezeExcitation(
              (avgpool): AdaptiveAvgPool2d(output_size=1)
              (fc1): Conv2d(1152, 48, kernel_size=(1, 1), stride=(1, 1))
              (fc2): Conv2d(48, 1152, kernel_size=(1, 1), stride=(1, 1))
              (activation): SiLU(inplace=True)
              (scale_activation): Sigmoid()
            )
            (3): ConvNormActivation(
              (0): Conv2d(1152, 192, kernel_size=(1, 1), stride=(1, 1), bias=False)
              (1): BatchNorm2d(192, eps=1e-05, momentum=0.1, affine=True, track_running_stats=True)
            )
          )
          (stochastic_depth): StochasticDepth(p=0.1565217391304348, mode=row)
        )
        (3): MBConv(
          (block): Sequential(
            (0): ConvNormActivation(
              (0): Conv2d(192, 1152, kernel_size=(1, 1), stride=(1, 1), bias=False)
              (1): BatchNorm2d(1152, eps=1e-05, momentum=0.1, affine=True, track_running_stats=True)
              (2): SiLU(inplace=True)
            )
            (1): ConvNormActivation(
              (0): Conv2d(1152, 1152, kernel_size=(5, 5), stride=(1, 1), padding=(2, 2), groups=1152, bias=False)
              (1): BatchNorm2d(1152, eps=1e-05, momentum=0.1, affine=True, track_running_stats=True)
              (2): SiLU(inplace=True)
            )
            (2): SqueezeExcitation(
              (avgpool): AdaptiveAvgPool2d(output_size=1)
              (fc1): Conv2d(1152, 48, kernel_size=(1, 1), stride=(1, 1))
              (fc2): Conv2d(48, 1152, kernel_size=(1, 1), stride=(1, 1))
              (activation): SiLU(inplace=True)
              (scale_activation): Sigmoid()
            )
            (3): ConvNormActivation(
              (0): Conv2d(1152, 192, kernel_size=(1, 1), stride=(1, 1), bias=False)
              (1): BatchNorm2d(192, eps=1e-05, momentum=0.1, affine=True, track_running_stats=True)
            )
          )
          (stochastic_depth): StochasticDepth(p=0.16521739130434784, mode=row)
        )
        (4): MBConv(
          (block): Sequential(
            (0): ConvNormActivation(
              (0): Conv2d(192, 1152, kernel_size=(1, 1), stride=(1, 1), bias=False)
              (1): BatchNorm2d(1152, eps=1e-05, momentum=0.1, affine=True, track_running_stats=True)
              (2): SiLU(inplace=True)
            )
            (1): ConvNormActivation(
              (0): Conv2d(1152, 1152, kernel_size=(5, 5), stride=(1, 1), padding=(2, 2), groups=1152, bias=False)
              (1): BatchNorm2d(1152, eps=1e-05, momentum=0.1, affine=True, track_running_stats=True)
              (2): SiLU(inplace=True)
            )
            (2): SqueezeExcitation(
              (avgpool): AdaptiveAvgPool2d(output_size=1)
              (fc1): Conv2d(1152, 48, kernel_size=(1, 1), stride=(1, 1))
              (fc2): Conv2d(48, 1152, kernel_size=(1, 1), stride=(1, 1))
              (activation): SiLU(inplace=True)
              (scale_activation): Sigmoid()
            )
            (3): ConvNormActivation(
              (0): Conv2d(1152, 192, kernel_size=(1, 1), stride=(1, 1), bias=False)
              (1): BatchNorm2d(192, eps=1e-05, momentum=0.1, affine=True, track_running_stats=True)
            )
          )
          (stochastic_depth): StochasticDepth(p=0.17391304347826086, mode=row)
        )
      )
      (7): Sequential(
        (0): MBConv(
          (block): Sequential(
            (0): ConvNormActivation(
              (0): Conv2d(192, 1152, kernel_size=(1, 1), stride=(1, 1), bias=False)
              (1): BatchNorm2d(1152, eps=1e-05, momentum=0.1, affine=True, track_running_stats=True)
              (2): SiLU(inplace=True)
            )
            (1): ConvNormActivation(
              (0): Conv2d(1152, 1152, kernel_size=(3, 3), stride=(1, 1), padding=(1, 1), groups=1152, bias=False)
              (1): BatchNorm2d(1152, eps=1e-05, momentum=0.1, affine=True, track_running_stats=True)
              (2): SiLU(inplace=True)
            )
            (2): SqueezeExcitation(
              (avgpool): AdaptiveAvgPool2d(output_size=1)
              (fc1): Conv2d(1152, 48, kernel_size=(1, 1), stride=(1, 1))
              (fc2): Conv2d(48, 1152, kernel_size=(1, 1), stride=(1, 1))
              (activation): SiLU(inplace=True)
              (scale_activation): Sigmoid()
            )
            (3): ConvNormActivation(
              (0): Conv2d(1152, 320, kernel_size=(1, 1), stride=(1, 1), bias=False)
              (1): BatchNorm2d(320, eps=1e-05, momentum=0.1, affine=True, track_running_stats=True)
            )
          )
          (stochastic_depth): StochasticDepth(p=0.1826086956521739, mode=row)
        )
        (1): MBConv(
          (block): Sequential(
            (0): ConvNormActivation(
              (0): Conv2d(320, 1920, kernel_size=(1, 1), stride=(1, 1), bias=False)
              (1): BatchNorm2d(1920, eps=1e-05, momentum=0.1, affine=True, track_running_stats=True)
              (2): SiLU(inplace=True)
            )
            (1): ConvNormActivation(
              (0): Conv2d(1920, 1920, kernel_size=(3, 3), stride=(1, 1), padding=(1, 1), groups=1920, bias=False)
              (1): BatchNorm2d(1920, eps=1e-05, momentum=0.1, affine=True, track_running_stats=True)
              (2): SiLU(inplace=True)
            )
            (2): SqueezeExcitation(
              (avgpool): AdaptiveAvgPool2d(output_size=1)
              (fc1): Conv2d(1920, 80, kernel_size=(1, 1), stride=(1, 1))
              (fc2): Conv2d(80, 1920, kernel_size=(1, 1), stride=(1, 1))
              (activation): SiLU(inplace=True)
              (scale_activation): Sigmoid()
            )
            (3): ConvNormActivation(
              (0): Conv2d(1920, 320, kernel_size=(1, 1), stride=(1, 1), bias=False)
              (1): BatchNorm2d(320, eps=1e-05, momentum=0.1, affine=True, track_running_stats=True)
            )
          )
          (stochastic_depth): StochasticDepth(p=0.19130434782608696, mode=row)
        )
      )
      (8): ConvNormActivation(
        (0): Conv2d(320, 1280, kernel_size=(1, 1), stride=(1, 1), bias=False)
        (1): BatchNorm2d(1280, eps=1e-05, momentum=0.1, affine=True, track_running_stats=True)
        (2): SiLU(inplace=True)
      )
    )
    (avgpool): AdaptiveAvgPool2d(output_size=1)
    (classifier): Sequential(
      (0): Dropout(p=0.2, inplace=True)
      (1): Identity()
    )
  )
  (fc1): Sequential(
    (0): Linear(in_features=1280, out_features=1024, bias=True)
    (1): ReLU(inplace=True)
    (2): Dropout2d(p=0.5, inplace=False)
    (3): Linear(in_features=1024, out_features=128, bias=True)
    (4): ReLU(inplace=True)
    (5): Linear(in_features=128, out_features=2, bias=True)
  )
), 'cnn1': EfficientNet(
  (features): Sequential(
    (0): ConvNormActivation(
      (0): Conv2d(3, 32, kernel_size=(3, 3), stride=(2, 2), padding=(1, 1), bias=False)
      (1): BatchNorm2d(32, eps=1e-05, momentum=0.1, affine=True, track_running_stats=True)
      (2): SiLU(inplace=True)
    )
    (1): Sequential(
      (0): MBConv(
        (block): Sequential(
          (0): ConvNormActivation(
            (0): Conv2d(32, 32, kernel_size=(3, 3), stride=(1, 1), padding=(1, 1), groups=32, bias=False)
            (1): BatchNorm2d(32, eps=1e-05, momentum=0.1, affine=True, track_running_stats=True)
            (2): SiLU(inplace=True)
          )
          (1): SqueezeExcitation(
            (avgpool): AdaptiveAvgPool2d(output_size=1)
            (fc1): Conv2d(32, 8, kernel_size=(1, 1), stride=(1, 1))
            (fc2): Conv2d(8, 32, kernel_size=(1, 1), stride=(1, 1))
            (activation): SiLU(inplace=True)
            (scale_activation): Sigmoid()
          )
          (2): ConvNormActivation(
            (0): Conv2d(32, 16, kernel_size=(1, 1), stride=(1, 1), bias=False)
            (1): BatchNorm2d(16, eps=1e-05, momentum=0.1, affine=True, track_running_stats=True)
          )
        )
        (stochastic_depth): StochasticDepth(p=0.0, mode=row)
      )
      (1): MBConv(
        (block): Sequential(
          (0): ConvNormActivation(
            (0): Conv2d(16, 16, kernel_size=(3, 3), stride=(1, 1), padding=(1, 1), groups=16, bias=False)
            (1): BatchNorm2d(16, eps=1e-05, momentum=0.1, affine=True, track_running_stats=True)
            (2): SiLU(inplace=True)
          )
          (1): SqueezeExcitation(
            (avgpool): AdaptiveAvgPool2d(output_size=1)
            (fc1): Conv2d(16, 4, kernel_size=(1, 1), stride=(1, 1))
            (fc2): Conv2d(4, 16, kernel_size=(1, 1), stride=(1, 1))
            (activation): SiLU(inplace=True)
            (scale_activation): Sigmoid()
          )
          (2): ConvNormActivation(
            (0): Conv2d(16, 16, kernel_size=(1, 1), stride=(1, 1), bias=False)
            (1): BatchNorm2d(16, eps=1e-05, momentum=0.1, affine=True, track_running_stats=True)
          )
        )
        (stochastic_depth): StochasticDepth(p=0.008695652173913044, mode=row)
      )
    )
    (2): Sequential(
      (0): MBConv(
        (block): Sequential(
          (0): ConvNormActivation(
            (0): Conv2d(16, 96, kernel_size=(1, 1), stride=(1, 1), bias=False)
            (1): BatchNorm2d(96, eps=1e-05, momentum=0.1, affine=True, track_running_stats=True)
            (2): SiLU(inplace=True)
          )
          (1): ConvNormActivation(
            (0): Conv2d(96, 96, kernel_size=(3, 3), stride=(2, 2), padding=(1, 1), groups=96, bias=False)
            (1): BatchNorm2d(96, eps=1e-05, momentum=0.1, affine=True, track_running_stats=True)
            (2): SiLU(inplace=True)
          )
          (2): SqueezeExcitation(
            (avgpool): AdaptiveAvgPool2d(output_size=1)
            (fc1): Conv2d(96, 4, kernel_size=(1, 1), stride=(1, 1))
            (fc2): Conv2d(4, 96, kernel_size=(1, 1), stride=(1, 1))
            (activation): SiLU(inplace=True)
            (scale_activation): Sigmoid()
          )
          (3): ConvNormActivation(
            (0): Conv2d(96, 24, kernel_size=(1, 1), stride=(1, 1), bias=False)
            (1): BatchNorm2d(24, eps=1e-05, momentum=0.1, affine=True, track_running_stats=True)
          )
        )
        (stochastic_depth): StochasticDepth(p=0.017391304347826087, mode=row)
      )
      (1): MBConv(
        (block): Sequential(
          (0): ConvNormActivation(
            (0): Conv2d(24, 144, kernel_size=(1, 1), stride=(1, 1), bias=False)
            (1): BatchNorm2d(144, eps=1e-05, momentum=0.1, affine=True, track_running_stats=True)
            (2): SiLU(inplace=True)
          )
          (1): ConvNormActivation(
            (0): Conv2d(144, 144, kernel_size=(3, 3), stride=(1, 1), padding=(1, 1), groups=144, bias=False)
            (1): BatchNorm2d(144, eps=1e-05, momentum=0.1, affine=True, track_running_stats=True)
            (2): SiLU(inplace=True)
          )
          (2): SqueezeExcitation(
            (avgpool): AdaptiveAvgPool2d(output_size=1)
            (fc1): Conv2d(144, 6, kernel_size=(1, 1), stride=(1, 1))
            (fc2): Conv2d(6, 144, kernel_size=(1, 1), stride=(1, 1))
            (activation): SiLU(inplace=True)
            (scale_activation): Sigmoid()
          )
          (3): ConvNormActivation(
            (0): Conv2d(144, 24, kernel_size=(1, 1), stride=(1, 1), bias=False)
            (1): BatchNorm2d(24, eps=1e-05, momentum=0.1, affine=True, track_running_stats=True)
          )
        )
        (stochastic_depth): StochasticDepth(p=0.026086956521739136, mode=row)
      )
      (2): MBConv(
        (block): Sequential(
          (0): ConvNormActivation(
            (0): Conv2d(24, 144, kernel_size=(1, 1), stride=(1, 1), bias=False)
            (1): BatchNorm2d(144, eps=1e-05, momentum=0.1, affine=True, track_running_stats=True)
            (2): SiLU(inplace=True)
          )
          (1): ConvNormActivation(
            (0): Conv2d(144, 144, kernel_size=(3, 3), stride=(1, 1), padding=(1, 1), groups=144, bias=False)
            (1): BatchNorm2d(144, eps=1e-05, momentum=0.1, affine=True, track_running_stats=True)
            (2): SiLU(inplace=True)
          )
          (2): SqueezeExcitation(
            (avgpool): AdaptiveAvgPool2d(output_size=1)
            (fc1): Conv2d(144, 6, kernel_size=(1, 1), stride=(1, 1))
            (fc2): Conv2d(6, 144, kernel_size=(1, 1), stride=(1, 1))
            (activation): SiLU(inplace=True)
            (scale_activation): Sigmoid()
          )
          (3): ConvNormActivation(
            (0): Conv2d(144, 24, kernel_size=(1, 1), stride=(1, 1), bias=False)
            (1): BatchNorm2d(24, eps=1e-05, momentum=0.1, affine=True, track_running_stats=True)
          )
        )
        (stochastic_depth): StochasticDepth(p=0.034782608695652174, mode=row)
      )
    )
    (3): Sequential(
      (0): MBConv(
        (block): Sequential(
          (0): ConvNormActivation(
            (0): Conv2d(24, 144, kernel_size=(1, 1), stride=(1, 1), bias=False)
            (1): BatchNorm2d(144, eps=1e-05, momentum=0.1, affine=True, track_running_stats=True)
            (2): SiLU(inplace=True)
          )
          (1): ConvNormActivation(
            (0): Conv2d(144, 144, kernel_size=(5, 5), stride=(2, 2), padding=(2, 2), groups=144, bias=False)
            (1): BatchNorm2d(144, eps=1e-05, momentum=0.1, affine=True, track_running_stats=True)
            (2): SiLU(inplace=True)
          )
          (2): SqueezeExcitation(
            (avgpool): AdaptiveAvgPool2d(output_size=1)
            (fc1): Conv2d(144, 6, kernel_size=(1, 1), stride=(1, 1))
            (fc2): Conv2d(6, 144, kernel_size=(1, 1), stride=(1, 1))
            (activation): SiLU(inplace=True)
            (scale_activation): Sigmoid()
          )
          (3): ConvNormActivation(
            (0): Conv2d(144, 40, kernel_size=(1, 1), stride=(1, 1), bias=False)
            (1): BatchNorm2d(40, eps=1e-05, momentum=0.1, affine=True, track_running_stats=True)
          )
        )
        (stochastic_depth): StochasticDepth(p=0.043478260869565216, mode=row)
      )
      (1): MBConv(
        (block): Sequential(
          (0): ConvNormActivation(
            (0): Conv2d(40, 240, kernel_size=(1, 1), stride=(1, 1), bias=False)
            (1): BatchNorm2d(240, eps=1e-05, momentum=0.1, affine=True, track_running_stats=True)
            (2): SiLU(inplace=True)
          )
          (1): ConvNormActivation(
            (0): Conv2d(240, 240, kernel_size=(5, 5), stride=(1, 1), padding=(2, 2), groups=240, bias=False)
            (1): BatchNorm2d(240, eps=1e-05, momentum=0.1, affine=True, track_running_stats=True)
            (2): SiLU(inplace=True)
          )
          (2): SqueezeExcitation(
            (avgpool): AdaptiveAvgPool2d(output_size=1)
            (fc1): Conv2d(240, 10, kernel_size=(1, 1), stride=(1, 1))
            (fc2): Conv2d(10, 240, kernel_size=(1, 1), stride=(1, 1))
            (activation): SiLU(inplace=True)
            (scale_activation): Sigmoid()
          )
          (3): ConvNormActivation(
            (0): Conv2d(240, 40, kernel_size=(1, 1), stride=(1, 1), bias=False)
            (1): BatchNorm2d(40, eps=1e-05, momentum=0.1, affine=True, track_running_stats=True)
          )
        )
        (stochastic_depth): StochasticDepth(p=0.05217391304347827, mode=row)
      )
      (2): MBConv(
        (block): Sequential(
          (0): ConvNormActivation(
            (0): Conv2d(40, 240, kernel_size=(1, 1), stride=(1, 1), bias=False)
            (1): BatchNorm2d(240, eps=1e-05, momentum=0.1, affine=True, track_running_stats=True)
            (2): SiLU(inplace=True)
          )
          (1): ConvNormActivation(
            (0): Conv2d(240, 240, kernel_size=(5, 5), stride=(1, 1), padding=(2, 2), groups=240, bias=False)
            (1): BatchNorm2d(240, eps=1e-05, momentum=0.1, affine=True, track_running_stats=True)
            (2): SiLU(inplace=True)
          )
          (2): SqueezeExcitation(
            (avgpool): AdaptiveAvgPool2d(output_size=1)
            (fc1): Conv2d(240, 10, kernel_size=(1, 1), stride=(1, 1))
            (fc2): Conv2d(10, 240, kernel_size=(1, 1), stride=(1, 1))
            (activation): SiLU(inplace=True)
            (scale_activation): Sigmoid()
          )
          (3): ConvNormActivation(
            (0): Conv2d(240, 40, kernel_size=(1, 1), stride=(1, 1), bias=False)
            (1): BatchNorm2d(40, eps=1e-05, momentum=0.1, affine=True, track_running_stats=True)
          )
        )
        (stochastic_depth): StochasticDepth(p=0.06086956521739131, mode=row)
      )
    )
    (4): Sequential(
      (0): MBConv(
        (block): Sequential(
          (0): ConvNormActivation(
            (0): Conv2d(40, 240, kernel_size=(1, 1), stride=(1, 1), bias=False)
            (1): BatchNorm2d(240, eps=1e-05, momentum=0.1, affine=True, track_running_stats=True)
            (2): SiLU(inplace=True)
          )
          (1): ConvNormActivation(
            (0): Conv2d(240, 240, kernel_size=(3, 3), stride=(2, 2), padding=(1, 1), groups=240, bias=False)
            (1): BatchNorm2d(240, eps=1e-05, momentum=0.1, affine=True, track_running_stats=True)
            (2): SiLU(inplace=True)
          )
          (2): SqueezeExcitation(
            (avgpool): AdaptiveAvgPool2d(output_size=1)
            (fc1): Conv2d(240, 10, kernel_size=(1, 1), stride=(1, 1))
            (fc2): Conv2d(10, 240, kernel_size=(1, 1), stride=(1, 1))
            (activation): SiLU(inplace=True)
            (scale_activation): Sigmoid()
          )
          (3): ConvNormActivation(
            (0): Conv2d(240, 80, kernel_size=(1, 1), stride=(1, 1), bias=False)
            (1): BatchNorm2d(80, eps=1e-05, momentum=0.1, affine=True, track_running_stats=True)
          )
        )
        (stochastic_depth): StochasticDepth(p=0.06956521739130435, mode=row)
      )
      (1): MBConv(
        (block): Sequential(
          (0): ConvNormActivation(
            (0): Conv2d(80, 480, kernel_size=(1, 1), stride=(1, 1), bias=False)
            (1): BatchNorm2d(480, eps=1e-05, momentum=0.1, affine=True, track_running_stats=True)
            (2): SiLU(inplace=True)
          )
          (1): ConvNormActivation(
            (0): Conv2d(480, 480, kernel_size=(3, 3), stride=(1, 1), padding=(1, 1), groups=480, bias=False)
            (1): BatchNorm2d(480, eps=1e-05, momentum=0.1, affine=True, track_running_stats=True)
            (2): SiLU(inplace=True)
          )
          (2): SqueezeExcitation(
            (avgpool): AdaptiveAvgPool2d(output_size=1)
            (fc1): Conv2d(480, 20, kernel_size=(1, 1), stride=(1, 1))
            (fc2): Conv2d(20, 480, kernel_size=(1, 1), stride=(1, 1))
            (activation): SiLU(inplace=True)
            (scale_activation): Sigmoid()
          )
          (3): ConvNormActivation(
            (0): Conv2d(480, 80, kernel_size=(1, 1), stride=(1, 1), bias=False)
            (1): BatchNorm2d(80, eps=1e-05, momentum=0.1, affine=True, track_running_stats=True)
          )
        )
        (stochastic_depth): StochasticDepth(p=0.0782608695652174, mode=row)
      )
      (2): MBConv(
        (block): Sequential(
          (0): ConvNormActivation(
            (0): Conv2d(80, 480, kernel_size=(1, 1), stride=(1, 1), bias=False)
            (1): BatchNorm2d(480, eps=1e-05, momentum=0.1, affine=True, track_running_stats=True)
            (2): SiLU(inplace=True)
          )
          (1): ConvNormActivation(
            (0): Conv2d(480, 480, kernel_size=(3, 3), stride=(1, 1), padding=(1, 1), groups=480, bias=False)
            (1): BatchNorm2d(480, eps=1e-05, momentum=0.1, affine=True, track_running_stats=True)
            (2): SiLU(inplace=True)
          )
          (2): SqueezeExcitation(
            (avgpool): AdaptiveAvgPool2d(output_size=1)
            (fc1): Conv2d(480, 20, kernel_size=(1, 1), stride=(1, 1))
            (fc2): Conv2d(20, 480, kernel_size=(1, 1), stride=(1, 1))
            (activation): SiLU(inplace=True)
            (scale_activation): Sigmoid()
          )
          (3): ConvNormActivation(
            (0): Conv2d(480, 80, kernel_size=(1, 1), stride=(1, 1), bias=False)
            (1): BatchNorm2d(80, eps=1e-05, momentum=0.1, affine=True, track_running_stats=True)
          )
        )
        (stochastic_depth): StochasticDepth(p=0.08695652173913043, mode=row)
      )
      (3): MBConv(
        (block): Sequential(
          (0): ConvNormActivation(
            (0): Conv2d(80, 480, kernel_size=(1, 1), stride=(1, 1), bias=False)
            (1): BatchNorm2d(480, eps=1e-05, momentum=0.1, affine=True, track_running_stats=True)
            (2): SiLU(inplace=True)
          )
          (1): ConvNormActivation(
            (0): Conv2d(480, 480, kernel_size=(3, 3), stride=(1, 1), padding=(1, 1), groups=480, bias=False)
            (1): BatchNorm2d(480, eps=1e-05, momentum=0.1, affine=True, track_running_stats=True)
            (2): SiLU(inplace=True)
          )
          (2): SqueezeExcitation(
            (avgpool): AdaptiveAvgPool2d(output_size=1)
            (fc1): Conv2d(480, 20, kernel_size=(1, 1), stride=(1, 1))
            (fc2): Conv2d(20, 480, kernel_size=(1, 1), stride=(1, 1))
            (activation): SiLU(inplace=True)
            (scale_activation): Sigmoid()
          )
          (3): ConvNormActivation(
            (0): Conv2d(480, 80, kernel_size=(1, 1), stride=(1, 1), bias=False)
            (1): BatchNorm2d(80, eps=1e-05, momentum=0.1, affine=True, track_running_stats=True)
          )
        )
        (stochastic_depth): StochasticDepth(p=0.09565217391304348, mode=row)
      )
    )
    (5): Sequential(
      (0): MBConv(
        (block): Sequential(
          (0): ConvNormActivation(
            (0): Conv2d(80, 480, kernel_size=(1, 1), stride=(1, 1), bias=False)
            (1): BatchNorm2d(480, eps=1e-05, momentum=0.1, affine=True, track_running_stats=True)
            (2): SiLU(inplace=True)
          )
          (1): ConvNormActivation(
            (0): Conv2d(480, 480, kernel_size=(5, 5), stride=(1, 1), padding=(2, 2), groups=480, bias=False)
            (1): BatchNorm2d(480, eps=1e-05, momentum=0.1, affine=True, track_running_stats=True)
            (2): SiLU(inplace=True)
          )
          (2): SqueezeExcitation(
            (avgpool): AdaptiveAvgPool2d(output_size=1)
            (fc1): Conv2d(480, 20, kernel_size=(1, 1), stride=(1, 1))
            (fc2): Conv2d(20, 480, kernel_size=(1, 1), stride=(1, 1))
            (activation): SiLU(inplace=True)
            (scale_activation): Sigmoid()
          )
          (3): ConvNormActivation(
            (0): Conv2d(480, 112, kernel_size=(1, 1), stride=(1, 1), bias=False)
            (1): BatchNorm2d(112, eps=1e-05, momentum=0.1, affine=True, track_running_stats=True)
          )
        )
        (stochastic_depth): StochasticDepth(p=0.10434782608695654, mode=row)
      )
      (1): MBConv(
        (block): Sequential(
          (0): ConvNormActivation(
            (0): Conv2d(112, 672, kernel_size=(1, 1), stride=(1, 1), bias=False)
            (1): BatchNorm2d(672, eps=1e-05, momentum=0.1, affine=True, track_running_stats=True)
            (2): SiLU(inplace=True)
          )
          (1): ConvNormActivation(
            (0): Conv2d(672, 672, kernel_size=(5, 5), stride=(1, 1), padding=(2, 2), groups=672, bias=False)
            (1): BatchNorm2d(672, eps=1e-05, momentum=0.1, affine=True, track_running_stats=True)
            (2): SiLU(inplace=True)
          )
          (2): SqueezeExcitation(
            (avgpool): AdaptiveAvgPool2d(output_size=1)
            (fc1): Conv2d(672, 28, kernel_size=(1, 1), stride=(1, 1))
            (fc2): Conv2d(28, 672, kernel_size=(1, 1), stride=(1, 1))
            (activation): SiLU(inplace=True)
            (scale_activation): Sigmoid()
          )
          (3): ConvNormActivation(
            (0): Conv2d(672, 112, kernel_size=(1, 1), stride=(1, 1), bias=False)
            (1): BatchNorm2d(112, eps=1e-05, momentum=0.1, affine=True, track_running_stats=True)
          )
        )
        (stochastic_depth): StochasticDepth(p=0.11304347826086956, mode=row)
      )
      (2): MBConv(
        (block): Sequential(
          (0): ConvNormActivation(
            (0): Conv2d(112, 672, kernel_size=(1, 1), stride=(1, 1), bias=False)
            (1): BatchNorm2d(672, eps=1e-05, momentum=0.1, affine=True, track_running_stats=True)
            (2): SiLU(inplace=True)
          )
          (1): ConvNormActivation(
            (0): Conv2d(672, 672, kernel_size=(5, 5), stride=(1, 1), padding=(2, 2), groups=672, bias=False)
            (1): BatchNorm2d(672, eps=1e-05, momentum=0.1, affine=True, track_running_stats=True)
            (2): SiLU(inplace=True)
          )
          (2): SqueezeExcitation(
            (avgpool): AdaptiveAvgPool2d(output_size=1)
            (fc1): Conv2d(672, 28, kernel_size=(1, 1), stride=(1, 1))
            (fc2): Conv2d(28, 672, kernel_size=(1, 1), stride=(1, 1))
            (activation): SiLU(inplace=True)
            (scale_activation): Sigmoid()
          )
          (3): ConvNormActivation(
            (0): Conv2d(672, 112, kernel_size=(1, 1), stride=(1, 1), bias=False)
            (1): BatchNorm2d(112, eps=1e-05, momentum=0.1, affine=True, track_running_stats=True)
          )
        )
        (stochastic_depth): StochasticDepth(p=0.12173913043478261, mode=row)
      )
      (3): MBConv(
        (block): Sequential(
          (0): ConvNormActivation(
            (0): Conv2d(112, 672, kernel_size=(1, 1), stride=(1, 1), bias=False)
            (1): BatchNorm2d(672, eps=1e-05, momentum=0.1, affine=True, track_running_stats=True)
            (2): SiLU(inplace=True)
          )
          (1): ConvNormActivation(
            (0): Conv2d(672, 672, kernel_size=(5, 5), stride=(1, 1), padding=(2, 2), groups=672, bias=False)
            (1): BatchNorm2d(672, eps=1e-05, momentum=0.1, affine=True, track_running_stats=True)
            (2): SiLU(inplace=True)
          )
          (2): SqueezeExcitation(
            (avgpool): AdaptiveAvgPool2d(output_size=1)
            (fc1): Conv2d(672, 28, kernel_size=(1, 1), stride=(1, 1))
            (fc2): Conv2d(28, 672, kernel_size=(1, 1), stride=(1, 1))
            (activation): SiLU(inplace=True)
            (scale_activation): Sigmoid()
          )
          (3): ConvNormActivation(
            (0): Conv2d(672, 112, kernel_size=(1, 1), stride=(1, 1), bias=False)
            (1): BatchNorm2d(112, eps=1e-05, momentum=0.1, affine=True, track_running_stats=True)
          )
        )
        (stochastic_depth): StochasticDepth(p=0.13043478260869565, mode=row)
      )
    )
    (6): Sequential(
      (0): MBConv(
        (block): Sequential(
          (0): ConvNormActivation(
            (0): Conv2d(112, 672, kernel_size=(1, 1), stride=(1, 1), bias=False)
            (1): BatchNorm2d(672, eps=1e-05, momentum=0.1, affine=True, track_running_stats=True)
            (2): SiLU(inplace=True)
          )
          (1): ConvNormActivation(
            (0): Conv2d(672, 672, kernel_size=(5, 5), stride=(2, 2), padding=(2, 2), groups=672, bias=False)
            (1): BatchNorm2d(672, eps=1e-05, momentum=0.1, affine=True, track_running_stats=True)
            (2): SiLU(inplace=True)
          )
          (2): SqueezeExcitation(
            (avgpool): AdaptiveAvgPool2d(output_size=1)
            (fc1): Conv2d(672, 28, kernel_size=(1, 1), stride=(1, 1))
            (fc2): Conv2d(28, 672, kernel_size=(1, 1), stride=(1, 1))
            (activation): SiLU(inplace=True)
            (scale_activation): Sigmoid()
          )
          (3): ConvNormActivation(
            (0): Conv2d(672, 192, kernel_size=(1, 1), stride=(1, 1), bias=False)
            (1): BatchNorm2d(192, eps=1e-05, momentum=0.1, affine=True, track_running_stats=True)
          )
        )
        (stochastic_depth): StochasticDepth(p=0.1391304347826087, mode=row)
      )
      (1): MBConv(
        (block): Sequential(
          (0): ConvNormActivation(
            (0): Conv2d(192, 1152, kernel_size=(1, 1), stride=(1, 1), bias=False)
            (1): BatchNorm2d(1152, eps=1e-05, momentum=0.1, affine=True, track_running_stats=True)
            (2): SiLU(inplace=True)
          )
          (1): ConvNormActivation(
            (0): Conv2d(1152, 1152, kernel_size=(5, 5), stride=(1, 1), padding=(2, 2), groups=1152, bias=False)
            (1): BatchNorm2d(1152, eps=1e-05, momentum=0.1, affine=True, track_running_stats=True)
            (2): SiLU(inplace=True)
          )
          (2): SqueezeExcitation(
            (avgpool): AdaptiveAvgPool2d(output_size=1)
            (fc1): Conv2d(1152, 48, kernel_size=(1, 1), stride=(1, 1))
            (fc2): Conv2d(48, 1152, kernel_size=(1, 1), stride=(1, 1))
            (activation): SiLU(inplace=True)
            (scale_activation): Sigmoid()
          )
          (3): ConvNormActivation(
            (0): Conv2d(1152, 192, kernel_size=(1, 1), stride=(1, 1), bias=False)
            (1): BatchNorm2d(192, eps=1e-05, momentum=0.1, affine=True, track_running_stats=True)
          )
        )
        (stochastic_depth): StochasticDepth(p=0.14782608695652175, mode=row)
      )
      (2): MBConv(
        (block): Sequential(
          (0): ConvNormActivation(
            (0): Conv2d(192, 1152, kernel_size=(1, 1), stride=(1, 1), bias=False)
            (1): BatchNorm2d(1152, eps=1e-05, momentum=0.1, affine=True, track_running_stats=True)
            (2): SiLU(inplace=True)
          )
          (1): ConvNormActivation(
            (0): Conv2d(1152, 1152, kernel_size=(5, 5), stride=(1, 1), padding=(2, 2), groups=1152, bias=False)
            (1): BatchNorm2d(1152, eps=1e-05, momentum=0.1, affine=True, track_running_stats=True)
            (2): SiLU(inplace=True)
          )
          (2): SqueezeExcitation(
            (avgpool): AdaptiveAvgPool2d(output_size=1)
            (fc1): Conv2d(1152, 48, kernel_size=(1, 1), stride=(1, 1))
            (fc2): Conv2d(48, 1152, kernel_size=(1, 1), stride=(1, 1))
            (activation): SiLU(inplace=True)
            (scale_activation): Sigmoid()
          )
          (3): ConvNormActivation(
            (0): Conv2d(1152, 192, kernel_size=(1, 1), stride=(1, 1), bias=False)
            (1): BatchNorm2d(192, eps=1e-05, momentum=0.1, affine=True, track_running_stats=True)
          )
        )
        (stochastic_depth): StochasticDepth(p=0.1565217391304348, mode=row)
      )
      (3): MBConv(
        (block): Sequential(
          (0): ConvNormActivation(
            (0): Conv2d(192, 1152, kernel_size=(1, 1), stride=(1, 1), bias=False)
            (1): BatchNorm2d(1152, eps=1e-05, momentum=0.1, affine=True, track_running_stats=True)
            (2): SiLU(inplace=True)
          )
          (1): ConvNormActivation(
            (0): Conv2d(1152, 1152, kernel_size=(5, 5), stride=(1, 1), padding=(2, 2), groups=1152, bias=False)
            (1): BatchNorm2d(1152, eps=1e-05, momentum=0.1, affine=True, track_running_stats=True)
            (2): SiLU(inplace=True)
          )
          (2): SqueezeExcitation(
            (avgpool): AdaptiveAvgPool2d(output_size=1)
            (fc1): Conv2d(1152, 48, kernel_size=(1, 1), stride=(1, 1))
            (fc2): Conv2d(48, 1152, kernel_size=(1, 1), stride=(1, 1))
            (activation): SiLU(inplace=True)
            (scale_activation): Sigmoid()
          )
          (3): ConvNormActivation(
            (0): Conv2d(1152, 192, kernel_size=(1, 1), stride=(1, 1), bias=False)
            (1): BatchNorm2d(192, eps=1e-05, momentum=0.1, affine=True, track_running_stats=True)
          )
        )
        (stochastic_depth): StochasticDepth(p=0.16521739130434784, mode=row)
      )
      (4): MBConv(
        (block): Sequential(
          (0): ConvNormActivation(
            (0): Conv2d(192, 1152, kernel_size=(1, 1), stride=(1, 1), bias=False)
            (1): BatchNorm2d(1152, eps=1e-05, momentum=0.1, affine=True, track_running_stats=True)
            (2): SiLU(inplace=True)
          )
          (1): ConvNormActivation(
            (0): Conv2d(1152, 1152, kernel_size=(5, 5), stride=(1, 1), padding=(2, 2), groups=1152, bias=False)
            (1): BatchNorm2d(1152, eps=1e-05, momentum=0.1, affine=True, track_running_stats=True)
            (2): SiLU(inplace=True)
          )
          (2): SqueezeExcitation(
            (avgpool): AdaptiveAvgPool2d(output_size=1)
            (fc1): Conv2d(1152, 48, kernel_size=(1, 1), stride=(1, 1))
            (fc2): Conv2d(48, 1152, kernel_size=(1, 1), stride=(1, 1))
            (activation): SiLU(inplace=True)
            (scale_activation): Sigmoid()
          )
          (3): ConvNormActivation(
            (0): Conv2d(1152, 192, kernel_size=(1, 1), stride=(1, 1), bias=False)
            (1): BatchNorm2d(192, eps=1e-05, momentum=0.1, affine=True, track_running_stats=True)
          )
        )
        (stochastic_depth): StochasticDepth(p=0.17391304347826086, mode=row)
      )
    )
    (7): Sequential(
      (0): MBConv(
        (block): Sequential(
          (0): ConvNormActivation(
            (0): Conv2d(192, 1152, kernel_size=(1, 1), stride=(1, 1), bias=False)
            (1): BatchNorm2d(1152, eps=1e-05, momentum=0.1, affine=True, track_running_stats=True)
            (2): SiLU(inplace=True)
          )
          (1): ConvNormActivation(
            (0): Conv2d(1152, 1152, kernel_size=(3, 3), stride=(1, 1), padding=(1, 1), groups=1152, bias=False)
            (1): BatchNorm2d(1152, eps=1e-05, momentum=0.1, affine=True, track_running_stats=True)
            (2): SiLU(inplace=True)
          )
          (2): SqueezeExcitation(
            (avgpool): AdaptiveAvgPool2d(output_size=1)
            (fc1): Conv2d(1152, 48, kernel_size=(1, 1), stride=(1, 1))
            (fc2): Conv2d(48, 1152, kernel_size=(1, 1), stride=(1, 1))
            (activation): SiLU(inplace=True)
            (scale_activation): Sigmoid()
          )
          (3): ConvNormActivation(
            (0): Conv2d(1152, 320, kernel_size=(1, 1), stride=(1, 1), bias=False)
            (1): BatchNorm2d(320, eps=1e-05, momentum=0.1, affine=True, track_running_stats=True)
          )
        )
        (stochastic_depth): StochasticDepth(p=0.1826086956521739, mode=row)
      )
      (1): MBConv(
        (block): Sequential(
          (0): ConvNormActivation(
            (0): Conv2d(320, 1920, kernel_size=(1, 1), stride=(1, 1), bias=False)
            (1): BatchNorm2d(1920, eps=1e-05, momentum=0.1, affine=True, track_running_stats=True)
            (2): SiLU(inplace=True)
          )
          (1): ConvNormActivation(
            (0): Conv2d(1920, 1920, kernel_size=(3, 3), stride=(1, 1), padding=(1, 1), groups=1920, bias=False)
            (1): BatchNorm2d(1920, eps=1e-05, momentum=0.1, affine=True, track_running_stats=True)
            (2): SiLU(inplace=True)
          )
          (2): SqueezeExcitation(
            (avgpool): AdaptiveAvgPool2d(output_size=1)
            (fc1): Conv2d(1920, 80, kernel_size=(1, 1), stride=(1, 1))
            (fc2): Conv2d(80, 1920, kernel_size=(1, 1), stride=(1, 1))
            (activation): SiLU(inplace=True)
            (scale_activation): Sigmoid()
          )
          (3): ConvNormActivation(
            (0): Conv2d(1920, 320, kernel_size=(1, 1), stride=(1, 1), bias=False)
            (1): BatchNorm2d(320, eps=1e-05, momentum=0.1, affine=True, track_running_stats=True)
          )
        )
        (stochastic_depth): StochasticDepth(p=0.19130434782608696, mode=row)
      )
    )
    (8): ConvNormActivation(
      (0): Conv2d(320, 1280, kernel_size=(1, 1), stride=(1, 1), bias=False)
      (1): BatchNorm2d(1280, eps=1e-05, momentum=0.1, affine=True, track_running_stats=True)
      (2): SiLU(inplace=True)
    )
  )
  (avgpool): AdaptiveAvgPool2d(output_size=1)
  (classifier): Sequential(
    (0): Dropout(p=0.2, inplace=True)
    (1): Identity()
  )
), 'cnn1.features': Sequential(
  (0): ConvNormActivation(
    (0): Conv2d(3, 32, kernel_size=(3, 3), stride=(2, 2), padding=(1, 1), bias=False)
    (1): BatchNorm2d(32, eps=1e-05, momentum=0.1, affine=True, track_running_stats=True)
    (2): SiLU(inplace=True)
  )
  (1): Sequential(
    (0): MBConv(
      (block): Sequential(
        (0): ConvNormActivation(
          (0): Conv2d(32, 32, kernel_size=(3, 3), stride=(1, 1), padding=(1, 1), groups=32, bias=False)
          (1): BatchNorm2d(32, eps=1e-05, momentum=0.1, affine=True, track_running_stats=True)
          (2): SiLU(inplace=True)
        )
        (1): SqueezeExcitation(
          (avgpool): AdaptiveAvgPool2d(output_size=1)
          (fc1): Conv2d(32, 8, kernel_size=(1, 1), stride=(1, 1))
          (fc2): Conv2d(8, 32, kernel_size=(1, 1), stride=(1, 1))
          (activation): SiLU(inplace=True)
          (scale_activation): Sigmoid()
        )
        (2): ConvNormActivation(
          (0): Conv2d(32, 16, kernel_size=(1, 1), stride=(1, 1), bias=False)
          (1): BatchNorm2d(16, eps=1e-05, momentum=0.1, affine=True, track_running_stats=True)
        )
      )
      (stochastic_depth): StochasticDepth(p=0.0, mode=row)
    )
    (1): MBConv(
      (block): Sequential(
        (0): ConvNormActivation(
          (0): Conv2d(16, 16, kernel_size=(3, 3), stride=(1, 1), padding=(1, 1), groups=16, bias=False)
          (1): BatchNorm2d(16, eps=1e-05, momentum=0.1, affine=True, track_running_stats=True)
          (2): SiLU(inplace=True)
        )
        (1): SqueezeExcitation(
          (avgpool): AdaptiveAvgPool2d(output_size=1)
          (fc1): Conv2d(16, 4, kernel_size=(1, 1), stride=(1, 1))
          (fc2): Conv2d(4, 16, kernel_size=(1, 1), stride=(1, 1))
          (activation): SiLU(inplace=True)
          (scale_activation): Sigmoid()
        )
        (2): ConvNormActivation(
          (0): Conv2d(16, 16, kernel_size=(1, 1), stride=(1, 1), bias=False)
          (1): BatchNorm2d(16, eps=1e-05, momentum=0.1, affine=True, track_running_stats=True)
        )
      )
      (stochastic_depth): StochasticDepth(p=0.008695652173913044, mode=row)
    )
  )
  (2): Sequential(
    (0): MBConv(
      (block): Sequential(
        (0): ConvNormActivation(
          (0): Conv2d(16, 96, kernel_size=(1, 1), stride=(1, 1), bias=False)
          (1): BatchNorm2d(96, eps=1e-05, momentum=0.1, affine=True, track_running_stats=True)
          (2): SiLU(inplace=True)
        )
        (1): ConvNormActivation(
          (0): Conv2d(96, 96, kernel_size=(3, 3), stride=(2, 2), padding=(1, 1), groups=96, bias=False)
          (1): BatchNorm2d(96, eps=1e-05, momentum=0.1, affine=True, track_running_stats=True)
          (2): SiLU(inplace=True)
        )
        (2): SqueezeExcitation(
          (avgpool): AdaptiveAvgPool2d(output_size=1)
          (fc1): Conv2d(96, 4, kernel_size=(1, 1), stride=(1, 1))
          (fc2): Conv2d(4, 96, kernel_size=(1, 1), stride=(1, 1))
          (activation): SiLU(inplace=True)
          (scale_activation): Sigmoid()
        )
        (3): ConvNormActivation(
          (0): Conv2d(96, 24, kernel_size=(1, 1), stride=(1, 1), bias=False)
          (1): BatchNorm2d(24, eps=1e-05, momentum=0.1, affine=True, track_running_stats=True)
        )
      )
      (stochastic_depth): StochasticDepth(p=0.017391304347826087, mode=row)
    )
    (1): MBConv(
      (block): Sequential(
        (0): ConvNormActivation(
          (0): Conv2d(24, 144, kernel_size=(1, 1), stride=(1, 1), bias=False)
          (1): BatchNorm2d(144, eps=1e-05, momentum=0.1, affine=True, track_running_stats=True)
          (2): SiLU(inplace=True)
        )
        (1): ConvNormActivation(
          (0): Conv2d(144, 144, kernel_size=(3, 3), stride=(1, 1), padding=(1, 1), groups=144, bias=False)
          (1): BatchNorm2d(144, eps=1e-05, momentum=0.1, affine=True, track_running_stats=True)
          (2): SiLU(inplace=True)
        )
        (2): SqueezeExcitation(
          (avgpool): AdaptiveAvgPool2d(output_size=1)
          (fc1): Conv2d(144, 6, kernel_size=(1, 1), stride=(1, 1))
          (fc2): Conv2d(6, 144, kernel_size=(1, 1), stride=(1, 1))
          (activation): SiLU(inplace=True)
          (scale_activation): Sigmoid()
        )
        (3): ConvNormActivation(
          (0): Conv2d(144, 24, kernel_size=(1, 1), stride=(1, 1), bias=False)
          (1): BatchNorm2d(24, eps=1e-05, momentum=0.1, affine=True, track_running_stats=True)
        )
      )
      (stochastic_depth): StochasticDepth(p=0.026086956521739136, mode=row)
    )
    (2): MBConv(
      (block): Sequential(
        (0): ConvNormActivation(
          (0): Conv2d(24, 144, kernel_size=(1, 1), stride=(1, 1), bias=False)
          (1): BatchNorm2d(144, eps=1e-05, momentum=0.1, affine=True, track_running_stats=True)
          (2): SiLU(inplace=True)
        )
        (1): ConvNormActivation(
          (0): Conv2d(144, 144, kernel_size=(3, 3), stride=(1, 1), padding=(1, 1), groups=144, bias=False)
          (1): BatchNorm2d(144, eps=1e-05, momentum=0.1, affine=True, track_running_stats=True)
          (2): SiLU(inplace=True)
        )
        (2): SqueezeExcitation(
          (avgpool): AdaptiveAvgPool2d(output_size=1)
          (fc1): Conv2d(144, 6, kernel_size=(1, 1), stride=(1, 1))
          (fc2): Conv2d(6, 144, kernel_size=(1, 1), stride=(1, 1))
          (activation): SiLU(inplace=True)
          (scale_activation): Sigmoid()
        )
        (3): ConvNormActivation(
          (0): Conv2d(144, 24, kernel_size=(1, 1), stride=(1, 1), bias=False)
          (1): BatchNorm2d(24, eps=1e-05, momentum=0.1, affine=True, track_running_stats=True)
        )
      )
      (stochastic_depth): StochasticDepth(p=0.034782608695652174, mode=row)
    )
  )
  (3): Sequential(
    (0): MBConv(
      (block): Sequential(
        (0): ConvNormActivation(
          (0): Conv2d(24, 144, kernel_size=(1, 1), stride=(1, 1), bias=False)
          (1): BatchNorm2d(144, eps=1e-05, momentum=0.1, affine=True, track_running_stats=True)
          (2): SiLU(inplace=True)
        )
        (1): ConvNormActivation(
          (0): Conv2d(144, 144, kernel_size=(5, 5), stride=(2, 2), padding=(2, 2), groups=144, bias=False)
          (1): BatchNorm2d(144, eps=1e-05, momentum=0.1, affine=True, track_running_stats=True)
          (2): SiLU(inplace=True)
        )
        (2): SqueezeExcitation(
          (avgpool): AdaptiveAvgPool2d(output_size=1)
          (fc1): Conv2d(144, 6, kernel_size=(1, 1), stride=(1, 1))
          (fc2): Conv2d(6, 144, kernel_size=(1, 1), stride=(1, 1))
          (activation): SiLU(inplace=True)
          (scale_activation): Sigmoid()
        )
        (3): ConvNormActivation(
          (0): Conv2d(144, 40, kernel_size=(1, 1), stride=(1, 1), bias=False)
          (1): BatchNorm2d(40, eps=1e-05, momentum=0.1, affine=True, track_running_stats=True)
        )
      )
      (stochastic_depth): StochasticDepth(p=0.043478260869565216, mode=row)
    )
    (1): MBConv(
      (block): Sequential(
        (0): ConvNormActivation(
          (0): Conv2d(40, 240, kernel_size=(1, 1), stride=(1, 1), bias=False)
          (1): BatchNorm2d(240, eps=1e-05, momentum=0.1, affine=True, track_running_stats=True)
          (2): SiLU(inplace=True)
        )
        (1): ConvNormActivation(
          (0): Conv2d(240, 240, kernel_size=(5, 5), stride=(1, 1), padding=(2, 2), groups=240, bias=False)
          (1): BatchNorm2d(240, eps=1e-05, momentum=0.1, affine=True, track_running_stats=True)
          (2): SiLU(inplace=True)
        )
        (2): SqueezeExcitation(
          (avgpool): AdaptiveAvgPool2d(output_size=1)
          (fc1): Conv2d(240, 10, kernel_size=(1, 1), stride=(1, 1))
          (fc2): Conv2d(10, 240, kernel_size=(1, 1), stride=(1, 1))
          (activation): SiLU(inplace=True)
          (scale_activation): Sigmoid()
        )
        (3): ConvNormActivation(
          (0): Conv2d(240, 40, kernel_size=(1, 1), stride=(1, 1), bias=False)
          (1): BatchNorm2d(40, eps=1e-05, momentum=0.1, affine=True, track_running_stats=True)
        )
      )
      (stochastic_depth): StochasticDepth(p=0.05217391304347827, mode=row)
    )
    (2): MBConv(
      (block): Sequential(
        (0): ConvNormActivation(
          (0): Conv2d(40, 240, kernel_size=(1, 1), stride=(1, 1), bias=False)
          (1): BatchNorm2d(240, eps=1e-05, momentum=0.1, affine=True, track_running_stats=True)
          (2): SiLU(inplace=True)
        )
        (1): ConvNormActivation(
          (0): Conv2d(240, 240, kernel_size=(5, 5), stride=(1, 1), padding=(2, 2), groups=240, bias=False)
          (1): BatchNorm2d(240, eps=1e-05, momentum=0.1, affine=True, track_running_stats=True)
          (2): SiLU(inplace=True)
        )
        (2): SqueezeExcitation(
          (avgpool): AdaptiveAvgPool2d(output_size=1)
          (fc1): Conv2d(240, 10, kernel_size=(1, 1), stride=(1, 1))
          (fc2): Conv2d(10, 240, kernel_size=(1, 1), stride=(1, 1))
          (activation): SiLU(inplace=True)
          (scale_activation): Sigmoid()
        )
        (3): ConvNormActivation(
          (0): Conv2d(240, 40, kernel_size=(1, 1), stride=(1, 1), bias=False)
          (1): BatchNorm2d(40, eps=1e-05, momentum=0.1, affine=True, track_running_stats=True)
        )
      )
      (stochastic_depth): StochasticDepth(p=0.06086956521739131, mode=row)
    )
  )
  (4): Sequential(
    (0): MBConv(
      (block): Sequential(
        (0): ConvNormActivation(
          (0): Conv2d(40, 240, kernel_size=(1, 1), stride=(1, 1), bias=False)
          (1): BatchNorm2d(240, eps=1e-05, momentum=0.1, affine=True, track_running_stats=True)
          (2): SiLU(inplace=True)
        )
        (1): ConvNormActivation(
          (0): Conv2d(240, 240, kernel_size=(3, 3), stride=(2, 2), padding=(1, 1), groups=240, bias=False)
          (1): BatchNorm2d(240, eps=1e-05, momentum=0.1, affine=True, track_running_stats=True)
          (2): SiLU(inplace=True)
        )
        (2): SqueezeExcitation(
          (avgpool): AdaptiveAvgPool2d(output_size=1)
          (fc1): Conv2d(240, 10, kernel_size=(1, 1), stride=(1, 1))
          (fc2): Conv2d(10, 240, kernel_size=(1, 1), stride=(1, 1))
          (activation): SiLU(inplace=True)
          (scale_activation): Sigmoid()
        )
        (3): ConvNormActivation(
          (0): Conv2d(240, 80, kernel_size=(1, 1), stride=(1, 1), bias=False)
          (1): BatchNorm2d(80, eps=1e-05, momentum=0.1, affine=True, track_running_stats=True)
        )
      )
      (stochastic_depth): StochasticDepth(p=0.06956521739130435, mode=row)
    )
    (1): MBConv(
      (block): Sequential(
        (0): ConvNormActivation(
          (0): Conv2d(80, 480, kernel_size=(1, 1), stride=(1, 1), bias=False)
          (1): BatchNorm2d(480, eps=1e-05, momentum=0.1, affine=True, track_running_stats=True)
          (2): SiLU(inplace=True)
        )
        (1): ConvNormActivation(
          (0): Conv2d(480, 480, kernel_size=(3, 3), stride=(1, 1), padding=(1, 1), groups=480, bias=False)
          (1): BatchNorm2d(480, eps=1e-05, momentum=0.1, affine=True, track_running_stats=True)
          (2): SiLU(inplace=True)
        )
        (2): SqueezeExcitation(
          (avgpool): AdaptiveAvgPool2d(output_size=1)
          (fc1): Conv2d(480, 20, kernel_size=(1, 1), stride=(1, 1))
          (fc2): Conv2d(20, 480, kernel_size=(1, 1), stride=(1, 1))
          (activation): SiLU(inplace=True)
          (scale_activation): Sigmoid()
        )
        (3): ConvNormActivation(
          (0): Conv2d(480, 80, kernel_size=(1, 1), stride=(1, 1), bias=False)
          (1): BatchNorm2d(80, eps=1e-05, momentum=0.1, affine=True, track_running_stats=True)
        )
      )
      (stochastic_depth): StochasticDepth(p=0.0782608695652174, mode=row)
    )
    (2): MBConv(
      (block): Sequential(
        (0): ConvNormActivation(
          (0): Conv2d(80, 480, kernel_size=(1, 1), stride=(1, 1), bias=False)
          (1): BatchNorm2d(480, eps=1e-05, momentum=0.1, affine=True, track_running_stats=True)
          (2): SiLU(inplace=True)
        )
        (1): ConvNormActivation(
          (0): Conv2d(480, 480, kernel_size=(3, 3), stride=(1, 1), padding=(1, 1), groups=480, bias=False)
          (1): BatchNorm2d(480, eps=1e-05, momentum=0.1, affine=True, track_running_stats=True)
          (2): SiLU(inplace=True)
        )
        (2): SqueezeExcitation(
          (avgpool): AdaptiveAvgPool2d(output_size=1)
          (fc1): Conv2d(480, 20, kernel_size=(1, 1), stride=(1, 1))
          (fc2): Conv2d(20, 480, kernel_size=(1, 1), stride=(1, 1))
          (activation): SiLU(inplace=True)
          (scale_activation): Sigmoid()
        )
        (3): ConvNormActivation(
          (0): Conv2d(480, 80, kernel_size=(1, 1), stride=(1, 1), bias=False)
          (1): BatchNorm2d(80, eps=1e-05, momentum=0.1, affine=True, track_running_stats=True)
        )
      )
      (stochastic_depth): StochasticDepth(p=0.08695652173913043, mode=row)
    )
    (3): MBConv(
      (block): Sequential(
        (0): ConvNormActivation(
          (0): Conv2d(80, 480, kernel_size=(1, 1), stride=(1, 1), bias=False)
          (1): BatchNorm2d(480, eps=1e-05, momentum=0.1, affine=True, track_running_stats=True)
          (2): SiLU(inplace=True)
        )
        (1): ConvNormActivation(
          (0): Conv2d(480, 480, kernel_size=(3, 3), stride=(1, 1), padding=(1, 1), groups=480, bias=False)
          (1): BatchNorm2d(480, eps=1e-05, momentum=0.1, affine=True, track_running_stats=True)
          (2): SiLU(inplace=True)
        )
        (2): SqueezeExcitation(
          (avgpool): AdaptiveAvgPool2d(output_size=1)
          (fc1): Conv2d(480, 20, kernel_size=(1, 1), stride=(1, 1))
          (fc2): Conv2d(20, 480, kernel_size=(1, 1), stride=(1, 1))
          (activation): SiLU(inplace=True)
          (scale_activation): Sigmoid()
        )
        (3): ConvNormActivation(
          (0): Conv2d(480, 80, kernel_size=(1, 1), stride=(1, 1), bias=False)
          (1): BatchNorm2d(80, eps=1e-05, momentum=0.1, affine=True, track_running_stats=True)
        )
      )
      (stochastic_depth): StochasticDepth(p=0.09565217391304348, mode=row)
    )
  )
  (5): Sequential(
    (0): MBConv(
      (block): Sequential(
        (0): ConvNormActivation(
          (0): Conv2d(80, 480, kernel_size=(1, 1), stride=(1, 1), bias=False)
          (1): BatchNorm2d(480, eps=1e-05, momentum=0.1, affine=True, track_running_stats=True)
          (2): SiLU(inplace=True)
        )
        (1): ConvNormActivation(
          (0): Conv2d(480, 480, kernel_size=(5, 5), stride=(1, 1), padding=(2, 2), groups=480, bias=False)
          (1): BatchNorm2d(480, eps=1e-05, momentum=0.1, affine=True, track_running_stats=True)
          (2): SiLU(inplace=True)
        )
        (2): SqueezeExcitation(
          (avgpool): AdaptiveAvgPool2d(output_size=1)
          (fc1): Conv2d(480, 20, kernel_size=(1, 1), stride=(1, 1))
          (fc2): Conv2d(20, 480, kernel_size=(1, 1), stride=(1, 1))
          (activation): SiLU(inplace=True)
          (scale_activation): Sigmoid()
        )
        (3): ConvNormActivation(
          (0): Conv2d(480, 112, kernel_size=(1, 1), stride=(1, 1), bias=False)
          (1): BatchNorm2d(112, eps=1e-05, momentum=0.1, affine=True, track_running_stats=True)
        )
      )
      (stochastic_depth): StochasticDepth(p=0.10434782608695654, mode=row)
    )
    (1): MBConv(
      (block): Sequential(
        (0): ConvNormActivation(
          (0): Conv2d(112, 672, kernel_size=(1, 1), stride=(1, 1), bias=False)
          (1): BatchNorm2d(672, eps=1e-05, momentum=0.1, affine=True, track_running_stats=True)
          (2): SiLU(inplace=True)
        )
        (1): ConvNormActivation(
          (0): Conv2d(672, 672, kernel_size=(5, 5), stride=(1, 1), padding=(2, 2), groups=672, bias=False)
          (1): BatchNorm2d(672, eps=1e-05, momentum=0.1, affine=True, track_running_stats=True)
          (2): SiLU(inplace=True)
        )
        (2): SqueezeExcitation(
          (avgpool): AdaptiveAvgPool2d(output_size=1)
          (fc1): Conv2d(672, 28, kernel_size=(1, 1), stride=(1, 1))
          (fc2): Conv2d(28, 672, kernel_size=(1, 1), stride=(1, 1))
          (activation): SiLU(inplace=True)
          (scale_activation): Sigmoid()
        )
        (3): ConvNormActivation(
          (0): Conv2d(672, 112, kernel_size=(1, 1), stride=(1, 1), bias=False)
          (1): BatchNorm2d(112, eps=1e-05, momentum=0.1, affine=True, track_running_stats=True)
        )
      )
      (stochastic_depth): StochasticDepth(p=0.11304347826086956, mode=row)
    )
    (2): MBConv(
      (block): Sequential(
        (0): ConvNormActivation(
          (0): Conv2d(112, 672, kernel_size=(1, 1), stride=(1, 1), bias=False)
          (1): BatchNorm2d(672, eps=1e-05, momentum=0.1, affine=True, track_running_stats=True)
          (2): SiLU(inplace=True)
        )
        (1): ConvNormActivation(
          (0): Conv2d(672, 672, kernel_size=(5, 5), stride=(1, 1), padding=(2, 2), groups=672, bias=False)
          (1): BatchNorm2d(672, eps=1e-05, momentum=0.1, affine=True, track_running_stats=True)
          (2): SiLU(inplace=True)
        )
        (2): SqueezeExcitation(
          (avgpool): AdaptiveAvgPool2d(output_size=1)
          (fc1): Conv2d(672, 28, kernel_size=(1, 1), stride=(1, 1))
          (fc2): Conv2d(28, 672, kernel_size=(1, 1), stride=(1, 1))
          (activation): SiLU(inplace=True)
          (scale_activation): Sigmoid()
        )
        (3): ConvNormActivation(
          (0): Conv2d(672, 112, kernel_size=(1, 1), stride=(1, 1), bias=False)
          (1): BatchNorm2d(112, eps=1e-05, momentum=0.1, affine=True, track_running_stats=True)
        )
      )
      (stochastic_depth): StochasticDepth(p=0.12173913043478261, mode=row)
    )
    (3): MBConv(
      (block): Sequential(
        (0): ConvNormActivation(
          (0): Conv2d(112, 672, kernel_size=(1, 1), stride=(1, 1), bias=False)
          (1): BatchNorm2d(672, eps=1e-05, momentum=0.1, affine=True, track_running_stats=True)
          (2): SiLU(inplace=True)
        )
        (1): ConvNormActivation(
          (0): Conv2d(672, 672, kernel_size=(5, 5), stride=(1, 1), padding=(2, 2), groups=672, bias=False)
          (1): BatchNorm2d(672, eps=1e-05, momentum=0.1, affine=True, track_running_stats=True)
          (2): SiLU(inplace=True)
        )
        (2): SqueezeExcitation(
          (avgpool): AdaptiveAvgPool2d(output_size=1)
          (fc1): Conv2d(672, 28, kernel_size=(1, 1), stride=(1, 1))
          (fc2): Conv2d(28, 672, kernel_size=(1, 1), stride=(1, 1))
          (activation): SiLU(inplace=True)
          (scale_activation): Sigmoid()
        )
        (3): ConvNormActivation(
          (0): Conv2d(672, 112, kernel_size=(1, 1), stride=(1, 1), bias=False)
          (1): BatchNorm2d(112, eps=1e-05, momentum=0.1, affine=True, track_running_stats=True)
        )
      )
      (stochastic_depth): StochasticDepth(p=0.13043478260869565, mode=row)
    )
  )
  (6): Sequential(
    (0): MBConv(
      (block): Sequential(
        (0): ConvNormActivation(
          (0): Conv2d(112, 672, kernel_size=(1, 1), stride=(1, 1), bias=False)
          (1): BatchNorm2d(672, eps=1e-05, momentum=0.1, affine=True, track_running_stats=True)
          (2): SiLU(inplace=True)
        )
        (1): ConvNormActivation(
          (0): Conv2d(672, 672, kernel_size=(5, 5), stride=(2, 2), padding=(2, 2), groups=672, bias=False)
          (1): BatchNorm2d(672, eps=1e-05, momentum=0.1, affine=True, track_running_stats=True)
          (2): SiLU(inplace=True)
        )
        (2): SqueezeExcitation(
          (avgpool): AdaptiveAvgPool2d(output_size=1)
          (fc1): Conv2d(672, 28, kernel_size=(1, 1), stride=(1, 1))
          (fc2): Conv2d(28, 672, kernel_size=(1, 1), stride=(1, 1))
          (activation): SiLU(inplace=True)
          (scale_activation): Sigmoid()
        )
        (3): ConvNormActivation(
          (0): Conv2d(672, 192, kernel_size=(1, 1), stride=(1, 1), bias=False)
          (1): BatchNorm2d(192, eps=1e-05, momentum=0.1, affine=True, track_running_stats=True)
        )
      )
      (stochastic_depth): StochasticDepth(p=0.1391304347826087, mode=row)
    )
    (1): MBConv(
      (block): Sequential(
        (0): ConvNormActivation(
          (0): Conv2d(192, 1152, kernel_size=(1, 1), stride=(1, 1), bias=False)
          (1): BatchNorm2d(1152, eps=1e-05, momentum=0.1, affine=True, track_running_stats=True)
          (2): SiLU(inplace=True)
        )
        (1): ConvNormActivation(
          (0): Conv2d(1152, 1152, kernel_size=(5, 5), stride=(1, 1), padding=(2, 2), groups=1152, bias=False)
          (1): BatchNorm2d(1152, eps=1e-05, momentum=0.1, affine=True, track_running_stats=True)
          (2): SiLU(inplace=True)
        )
        (2): SqueezeExcitation(
          (avgpool): AdaptiveAvgPool2d(output_size=1)
          (fc1): Conv2d(1152, 48, kernel_size=(1, 1), stride=(1, 1))
          (fc2): Conv2d(48, 1152, kernel_size=(1, 1), stride=(1, 1))
          (activation): SiLU(inplace=True)
          (scale_activation): Sigmoid()
        )
        (3): ConvNormActivation(
          (0): Conv2d(1152, 192, kernel_size=(1, 1), stride=(1, 1), bias=False)
          (1): BatchNorm2d(192, eps=1e-05, momentum=0.1, affine=True, track_running_stats=True)
        )
      )
      (stochastic_depth): StochasticDepth(p=0.14782608695652175, mode=row)
    )
    (2): MBConv(
      (block): Sequential(
        (0): ConvNormActivation(
          (0): Conv2d(192, 1152, kernel_size=(1, 1), stride=(1, 1), bias=False)
          (1): BatchNorm2d(1152, eps=1e-05, momentum=0.1, affine=True, track_running_stats=True)
          (2): SiLU(inplace=True)
        )
        (1): ConvNormActivation(
          (0): Conv2d(1152, 1152, kernel_size=(5, 5), stride=(1, 1), padding=(2, 2), groups=1152, bias=False)
          (1): BatchNorm2d(1152, eps=1e-05, momentum=0.1, affine=True, track_running_stats=True)
          (2): SiLU(inplace=True)
        )
        (2): SqueezeExcitation(
          (avgpool): AdaptiveAvgPool2d(output_size=1)
          (fc1): Conv2d(1152, 48, kernel_size=(1, 1), stride=(1, 1))
          (fc2): Conv2d(48, 1152, kernel_size=(1, 1), stride=(1, 1))
          (activation): SiLU(inplace=True)
          (scale_activation): Sigmoid()
        )
        (3): ConvNormActivation(
          (0): Conv2d(1152, 192, kernel_size=(1, 1), stride=(1, 1), bias=False)
          (1): BatchNorm2d(192, eps=1e-05, momentum=0.1, affine=True, track_running_stats=True)
        )
      )
      (stochastic_depth): StochasticDepth(p=0.1565217391304348, mode=row)
    )
    (3): MBConv(
      (block): Sequential(
        (0): ConvNormActivation(
          (0): Conv2d(192, 1152, kernel_size=(1, 1), stride=(1, 1), bias=False)
          (1): BatchNorm2d(1152, eps=1e-05, momentum=0.1, affine=True, track_running_stats=True)
          (2): SiLU(inplace=True)
        )
        (1): ConvNormActivation(
          (0): Conv2d(1152, 1152, kernel_size=(5, 5), stride=(1, 1), padding=(2, 2), groups=1152, bias=False)
          (1): BatchNorm2d(1152, eps=1e-05, momentum=0.1, affine=True, track_running_stats=True)
          (2): SiLU(inplace=True)
        )
        (2): SqueezeExcitation(
          (avgpool): AdaptiveAvgPool2d(output_size=1)
          (fc1): Conv2d(1152, 48, kernel_size=(1, 1), stride=(1, 1))
          (fc2): Conv2d(48, 1152, kernel_size=(1, 1), stride=(1, 1))
          (activation): SiLU(inplace=True)
          (scale_activation): Sigmoid()
        )
        (3): ConvNormActivation(
          (0): Conv2d(1152, 192, kernel_size=(1, 1), stride=(1, 1), bias=False)
          (1): BatchNorm2d(192, eps=1e-05, momentum=0.1, affine=True, track_running_stats=True)
        )
      )
      (stochastic_depth): StochasticDepth(p=0.16521739130434784, mode=row)
    )
    (4): MBConv(
      (block): Sequential(
        (0): ConvNormActivation(
          (0): Conv2d(192, 1152, kernel_size=(1, 1), stride=(1, 1), bias=False)
          (1): BatchNorm2d(1152, eps=1e-05, momentum=0.1, affine=True, track_running_stats=True)
          (2): SiLU(inplace=True)
        )
        (1): ConvNormActivation(
          (0): Conv2d(1152, 1152, kernel_size=(5, 5), stride=(1, 1), padding=(2, 2), groups=1152, bias=False)
          (1): BatchNorm2d(1152, eps=1e-05, momentum=0.1, affine=True, track_running_stats=True)
          (2): SiLU(inplace=True)
        )
        (2): SqueezeExcitation(
          (avgpool): AdaptiveAvgPool2d(output_size=1)
          (fc1): Conv2d(1152, 48, kernel_size=(1, 1), stride=(1, 1))
          (fc2): Conv2d(48, 1152, kernel_size=(1, 1), stride=(1, 1))
          (activation): SiLU(inplace=True)
          (scale_activation): Sigmoid()
        )
        (3): ConvNormActivation(
          (0): Conv2d(1152, 192, kernel_size=(1, 1), stride=(1, 1), bias=False)
          (1): BatchNorm2d(192, eps=1e-05, momentum=0.1, affine=True, track_running_stats=True)
        )
      )
      (stochastic_depth): StochasticDepth(p=0.17391304347826086, mode=row)
    )
  )
  (7): Sequential(
    (0): MBConv(
      (block): Sequential(
        (0): ConvNormActivation(
          (0): Conv2d(192, 1152, kernel_size=(1, 1), stride=(1, 1), bias=False)
          (1): BatchNorm2d(1152, eps=1e-05, momentum=0.1, affine=True, track_running_stats=True)
          (2): SiLU(inplace=True)
        )
        (1): ConvNormActivation(
          (0): Conv2d(1152, 1152, kernel_size=(3, 3), stride=(1, 1), padding=(1, 1), groups=1152, bias=False)
          (1): BatchNorm2d(1152, eps=1e-05, momentum=0.1, affine=True, track_running_stats=True)
          (2): SiLU(inplace=True)
        )
        (2): SqueezeExcitation(
          (avgpool): AdaptiveAvgPool2d(output_size=1)
          (fc1): Conv2d(1152, 48, kernel_size=(1, 1), stride=(1, 1))
          (fc2): Conv2d(48, 1152, kernel_size=(1, 1), stride=(1, 1))
          (activation): SiLU(inplace=True)
          (scale_activation): Sigmoid()
        )
        (3): ConvNormActivation(
          (0): Conv2d(1152, 320, kernel_size=(1, 1), stride=(1, 1), bias=False)
          (1): BatchNorm2d(320, eps=1e-05, momentum=0.1, affine=True, track_running_stats=True)
        )
      )
      (stochastic_depth): StochasticDepth(p=0.1826086956521739, mode=row)
    )
    (1): MBConv(
      (block): Sequential(
        (0): ConvNormActivation(
          (0): Conv2d(320, 1920, kernel_size=(1, 1), stride=(1, 1), bias=False)
          (1): BatchNorm2d(1920, eps=1e-05, momentum=0.1, affine=True, track_running_stats=True)
          (2): SiLU(inplace=True)
        )
        (1): ConvNormActivation(
          (0): Conv2d(1920, 1920, kernel_size=(3, 3), stride=(1, 1), padding=(1, 1), groups=1920, bias=False)
          (1): BatchNorm2d(1920, eps=1e-05, momentum=0.1, affine=True, track_running_stats=True)
          (2): SiLU(inplace=True)
        )
        (2): SqueezeExcitation(
          (avgpool): AdaptiveAvgPool2d(output_size=1)
          (fc1): Conv2d(1920, 80, kernel_size=(1, 1), stride=(1, 1))
          (fc2): Conv2d(80, 1920, kernel_size=(1, 1), stride=(1, 1))
          (activation): SiLU(inplace=True)
          (scale_activation): Sigmoid()
        )
        (3): ConvNormActivation(
          (0): Conv2d(1920, 320, kernel_size=(1, 1), stride=(1, 1), bias=False)
          (1): BatchNorm2d(320, eps=1e-05, momentum=0.1, affine=True, track_running_stats=True)
        )
      )
      (stochastic_depth): StochasticDepth(p=0.19130434782608696, mode=row)
    )
  )
  (8): ConvNormActivation(
    (0): Conv2d(320, 1280, kernel_size=(1, 1), stride=(1, 1), bias=False)
    (1): BatchNorm2d(1280, eps=1e-05, momentum=0.1, affine=True, track_running_stats=True)
    (2): SiLU(inplace=True)
  )
), 'cnn1.features.0': ConvNormActivation(
  (0): Conv2d(3, 32, kernel_size=(3, 3), stride=(2, 2), padding=(1, 1), bias=False)
  (1): BatchNorm2d(32, eps=1e-05, momentum=0.1, affine=True, track_running_stats=True)
  (2): SiLU(inplace=True)
), 'cnn1.features.0.0': Conv2d(3, 32, kernel_size=(3, 3), stride=(2, 2), padding=(1, 1), bias=False), 'cnn1.features.0.1': BatchNorm2d(32, eps=1e-05, momentum=0.1, affine=True, track_running_stats=True), 'cnn1.features.0.2': SiLU(inplace=True), 'cnn1.features.1': Sequential(
  (0): MBConv(
    (block): Sequential(
      (0): ConvNormActivation(
        (0): Conv2d(32, 32, kernel_size=(3, 3), stride=(1, 1), padding=(1, 1), groups=32, bias=False)
        (1): BatchNorm2d(32, eps=1e-05, momentum=0.1, affine=True, track_running_stats=True)
        (2): SiLU(inplace=True)
      )
      (1): SqueezeExcitation(
        (avgpool): AdaptiveAvgPool2d(output_size=1)
        (fc1): Conv2d(32, 8, kernel_size=(1, 1), stride=(1, 1))
        (fc2): Conv2d(8, 32, kernel_size=(1, 1), stride=(1, 1))
        (activation): SiLU(inplace=True)
        (scale_activation): Sigmoid()
      )
      (2): ConvNormActivation(
        (0): Conv2d(32, 16, kernel_size=(1, 1), stride=(1, 1), bias=False)
        (1): BatchNorm2d(16, eps=1e-05, momentum=0.1, affine=True, track_running_stats=True)
      )
    )
    (stochastic_depth): StochasticDepth(p=0.0, mode=row)
  )
  (1): MBConv(
    (block): Sequential(
      (0): ConvNormActivation(
        (0): Conv2d(16, 16, kernel_size=(3, 3), stride=(1, 1), padding=(1, 1), groups=16, bias=False)
        (1): BatchNorm2d(16, eps=1e-05, momentum=0.1, affine=True, track_running_stats=True)
        (2): SiLU(inplace=True)
      )
      (1): SqueezeExcitation(
        (avgpool): AdaptiveAvgPool2d(output_size=1)
        (fc1): Conv2d(16, 4, kernel_size=(1, 1), stride=(1, 1))
        (fc2): Conv2d(4, 16, kernel_size=(1, 1), stride=(1, 1))
        (activation): SiLU(inplace=True)
        (scale_activation): Sigmoid()
      )
      (2): ConvNormActivation(
        (0): Conv2d(16, 16, kernel_size=(1, 1), stride=(1, 1), bias=False)
        (1): BatchNorm2d(16, eps=1e-05, momentum=0.1, affine=True, track_running_stats=True)
      )
    )
    (stochastic_depth): StochasticDepth(p=0.008695652173913044, mode=row)
  )
), 'cnn1.features.1.0': MBConv(
  (block): Sequential(
    (0): ConvNormActivation(
      (0): Conv2d(32, 32, kernel_size=(3, 3), stride=(1, 1), padding=(1, 1), groups=32, bias=False)
      (1): BatchNorm2d(32, eps=1e-05, momentum=0.1, affine=True, track_running_stats=True)
      (2): SiLU(inplace=True)
    )
    (1): SqueezeExcitation(
      (avgpool): AdaptiveAvgPool2d(output_size=1)
      (fc1): Conv2d(32, 8, kernel_size=(1, 1), stride=(1, 1))
      (fc2): Conv2d(8, 32, kernel_size=(1, 1), stride=(1, 1))
      (activation): SiLU(inplace=True)
      (scale_activation): Sigmoid()
    )
    (2): ConvNormActivation(
      (0): Conv2d(32, 16, kernel_size=(1, 1), stride=(1, 1), bias=False)
      (1): BatchNorm2d(16, eps=1e-05, momentum=0.1, affine=True, track_running_stats=True)
    )
  )
  (stochastic_depth): StochasticDepth(p=0.0, mode=row)
), 'cnn1.features.1.0.block': Sequential(
  (0): ConvNormActivation(
    (0): Conv2d(32, 32, kernel_size=(3, 3), stride=(1, 1), padding=(1, 1), groups=32, bias=False)
    (1): BatchNorm2d(32, eps=1e-05, momentum=0.1, affine=True, track_running_stats=True)
    (2): SiLU(inplace=True)
  )
  (1): SqueezeExcitation(
    (avgpool): AdaptiveAvgPool2d(output_size=1)
    (fc1): Conv2d(32, 8, kernel_size=(1, 1), stride=(1, 1))
    (fc2): Conv2d(8, 32, kernel_size=(1, 1), stride=(1, 1))
    (activation): SiLU(inplace=True)
    (scale_activation): Sigmoid()
  )
  (2): ConvNormActivation(
    (0): Conv2d(32, 16, kernel_size=(1, 1), stride=(1, 1), bias=False)
    (1): BatchNorm2d(16, eps=1e-05, momentum=0.1, affine=True, track_running_stats=True)
  )
), 'cnn1.features.1.0.block.0': ConvNormActivation(
  (0): Conv2d(32, 32, kernel_size=(3, 3), stride=(1, 1), padding=(1, 1), groups=32, bias=False)
  (1): BatchNorm2d(32, eps=1e-05, momentum=0.1, affine=True, track_running_stats=True)
  (2): SiLU(inplace=True)
), 'cnn1.features.1.0.block.0.0': Conv2d(32, 32, kernel_size=(3, 3), stride=(1, 1), padding=(1, 1), groups=32, bias=False), 'cnn1.features.1.0.block.0.1': BatchNorm2d(32, eps=1e-05, momentum=0.1, affine=True, track_running_stats=True), 'cnn1.features.1.0.block.0.2': SiLU(inplace=True), 'cnn1.features.1.0.block.1': SqueezeExcitation(
  (avgpool): AdaptiveAvgPool2d(output_size=1)
  (fc1): Conv2d(32, 8, kernel_size=(1, 1), stride=(1, 1))
  (fc2): Conv2d(8, 32, kernel_size=(1, 1), stride=(1, 1))
  (activation): SiLU(inplace=True)
  (scale_activation): Sigmoid()
), 'cnn1.features.1.0.block.1.avgpool': AdaptiveAvgPool2d(output_size=1), 'cnn1.features.1.0.block.1.fc1': Conv2d(32, 8, kernel_size=(1, 1), stride=(1, 1)), 'cnn1.features.1.0.block.1.fc2': Conv2d(8, 32, kernel_size=(1, 1), stride=(1, 1)), 'cnn1.features.1.0.block.1.activation': SiLU(inplace=True), 'cnn1.features.1.0.block.1.scale_activation': Sigmoid(), 'cnn1.features.1.0.block.2': ConvNormActivation(
  (0): Conv2d(32, 16, kernel_size=(1, 1), stride=(1, 1), bias=False)
  (1): BatchNorm2d(16, eps=1e-05, momentum=0.1, affine=True, track_running_stats=True)
), 'cnn1.features.1.0.block.2.0': Conv2d(32, 16, kernel_size=(1, 1), stride=(1, 1), bias=False), 'cnn1.features.1.0.block.2.1': BatchNorm2d(16, eps=1e-05, momentum=0.1, affine=True, track_running_stats=True), 'cnn1.features.1.0.stochastic_depth': StochasticDepth(p=0.0, mode=row), 'cnn1.features.1.1': MBConv(
  (block): Sequential(
    (0): ConvNormActivation(
      (0): Conv2d(16, 16, kernel_size=(3, 3), stride=(1, 1), padding=(1, 1), groups=16, bias=False)
      (1): BatchNorm2d(16, eps=1e-05, momentum=0.1, affine=True, track_running_stats=True)
      (2): SiLU(inplace=True)
    )
    (1): SqueezeExcitation(
      (avgpool): AdaptiveAvgPool2d(output_size=1)
      (fc1): Conv2d(16, 4, kernel_size=(1, 1), stride=(1, 1))
      (fc2): Conv2d(4, 16, kernel_size=(1, 1), stride=(1, 1))
      (activation): SiLU(inplace=True)
      (scale_activation): Sigmoid()
    )
    (2): ConvNormActivation(
      (0): Conv2d(16, 16, kernel_size=(1, 1), stride=(1, 1), bias=False)
      (1): BatchNorm2d(16, eps=1e-05, momentum=0.1, affine=True, track_running_stats=True)
    )
  )
  (stochastic_depth): StochasticDepth(p=0.008695652173913044, mode=row)
), 'cnn1.features.1.1.block': Sequential(
  (0): ConvNormActivation(
    (0): Conv2d(16, 16, kernel_size=(3, 3), stride=(1, 1), padding=(1, 1), groups=16, bias=False)
    (1): BatchNorm2d(16, eps=1e-05, momentum=0.1, affine=True, track_running_stats=True)
    (2): SiLU(inplace=True)
  )
  (1): SqueezeExcitation(
    (avgpool): AdaptiveAvgPool2d(output_size=1)
    (fc1): Conv2d(16, 4, kernel_size=(1, 1), stride=(1, 1))
    (fc2): Conv2d(4, 16, kernel_size=(1, 1), stride=(1, 1))
    (activation): SiLU(inplace=True)
    (scale_activation): Sigmoid()
  )
  (2): ConvNormActivation(
    (0): Conv2d(16, 16, kernel_size=(1, 1), stride=(1, 1), bias=False)
    (1): BatchNorm2d(16, eps=1e-05, momentum=0.1, affine=True, track_running_stats=True)
  )
), 'cnn1.features.1.1.block.0': ConvNormActivation(
  (0): Conv2d(16, 16, kernel_size=(3, 3), stride=(1, 1), padding=(1, 1), groups=16, bias=False)
  (1): BatchNorm2d(16, eps=1e-05, momentum=0.1, affine=True, track_running_stats=True)
  (2): SiLU(inplace=True)
), 'cnn1.features.1.1.block.0.0': Conv2d(16, 16, kernel_size=(3, 3), stride=(1, 1), padding=(1, 1), groups=16, bias=False), 'cnn1.features.1.1.block.0.1': BatchNorm2d(16, eps=1e-05, momentum=0.1, affine=True, track_running_stats=True), 'cnn1.features.1.1.block.0.2': SiLU(inplace=True), 'cnn1.features.1.1.block.1': SqueezeExcitation(
  (avgpool): AdaptiveAvgPool2d(output_size=1)
  (fc1): Conv2d(16, 4, kernel_size=(1, 1), stride=(1, 1))
  (fc2): Conv2d(4, 16, kernel_size=(1, 1), stride=(1, 1))
  (activation): SiLU(inplace=True)
  (scale_activation): Sigmoid()
), 'cnn1.features.1.1.block.1.avgpool': AdaptiveAvgPool2d(output_size=1), 'cnn1.features.1.1.block.1.fc1': Conv2d(16, 4, kernel_size=(1, 1), stride=(1, 1)), 'cnn1.features.1.1.block.1.fc2': Conv2d(4, 16, kernel_size=(1, 1), stride=(1, 1)), 'cnn1.features.1.1.block.1.activation': SiLU(inplace=True), 'cnn1.features.1.1.block.1.scale_activation': Sigmoid(), 'cnn1.features.1.1.block.2': ConvNormActivation(
  (0): Conv2d(16, 16, kernel_size=(1, 1), stride=(1, 1), bias=False)
  (1): BatchNorm2d(16, eps=1e-05, momentum=0.1, affine=True, track_running_stats=True)
), 'cnn1.features.1.1.block.2.0': Conv2d(16, 16, kernel_size=(1, 1), stride=(1, 1), bias=False), 'cnn1.features.1.1.block.2.1': BatchNorm2d(16, eps=1e-05, momentum=0.1, affine=True, track_running_stats=True), 'cnn1.features.1.1.stochastic_depth': StochasticDepth(p=0.008695652173913044, mode=row), 'cnn1.features.2': Sequential(
  (0): MBConv(
    (block): Sequential(
      (0): ConvNormActivation(
        (0): Conv2d(16, 96, kernel_size=(1, 1), stride=(1, 1), bias=False)
        (1): BatchNorm2d(96, eps=1e-05, momentum=0.1, affine=True, track_running_stats=True)
        (2): SiLU(inplace=True)
      )
      (1): ConvNormActivation(
        (0): Conv2d(96, 96, kernel_size=(3, 3), stride=(2, 2), padding=(1, 1), groups=96, bias=False)
        (1): BatchNorm2d(96, eps=1e-05, momentum=0.1, affine=True, track_running_stats=True)
        (2): SiLU(inplace=True)
      )
      (2): SqueezeExcitation(
        (avgpool): AdaptiveAvgPool2d(output_size=1)
        (fc1): Conv2d(96, 4, kernel_size=(1, 1), stride=(1, 1))
        (fc2): Conv2d(4, 96, kernel_size=(1, 1), stride=(1, 1))
        (activation): SiLU(inplace=True)
        (scale_activation): Sigmoid()
      )
      (3): ConvNormActivation(
        (0): Conv2d(96, 24, kernel_size=(1, 1), stride=(1, 1), bias=False)
        (1): BatchNorm2d(24, eps=1e-05, momentum=0.1, affine=True, track_running_stats=True)
      )
    )
    (stochastic_depth): StochasticDepth(p=0.017391304347826087, mode=row)
  )
  (1): MBConv(
    (block): Sequential(
      (0): ConvNormActivation(
        (0): Conv2d(24, 144, kernel_size=(1, 1), stride=(1, 1), bias=False)
        (1): BatchNorm2d(144, eps=1e-05, momentum=0.1, affine=True, track_running_stats=True)
        (2): SiLU(inplace=True)
      )
      (1): ConvNormActivation(
        (0): Conv2d(144, 144, kernel_size=(3, 3), stride=(1, 1), padding=(1, 1), groups=144, bias=False)
        (1): BatchNorm2d(144, eps=1e-05, momentum=0.1, affine=True, track_running_stats=True)
        (2): SiLU(inplace=True)
      )
      (2): SqueezeExcitation(
        (avgpool): AdaptiveAvgPool2d(output_size=1)
        (fc1): Conv2d(144, 6, kernel_size=(1, 1), stride=(1, 1))
        (fc2): Conv2d(6, 144, kernel_size=(1, 1), stride=(1, 1))
        (activation): SiLU(inplace=True)
        (scale_activation): Sigmoid()
      )
      (3): ConvNormActivation(
        (0): Conv2d(144, 24, kernel_size=(1, 1), stride=(1, 1), bias=False)
        (1): BatchNorm2d(24, eps=1e-05, momentum=0.1, affine=True, track_running_stats=True)
      )
    )
    (stochastic_depth): StochasticDepth(p=0.026086956521739136, mode=row)
  )
  (2): MBConv(
    (block): Sequential(
      (0): ConvNormActivation(
        (0): Conv2d(24, 144, kernel_size=(1, 1), stride=(1, 1), bias=False)
        (1): BatchNorm2d(144, eps=1e-05, momentum=0.1, affine=True, track_running_stats=True)
        (2): SiLU(inplace=True)
      )
      (1): ConvNormActivation(
        (0): Conv2d(144, 144, kernel_size=(3, 3), stride=(1, 1), padding=(1, 1), groups=144, bias=False)
        (1): BatchNorm2d(144, eps=1e-05, momentum=0.1, affine=True, track_running_stats=True)
        (2): SiLU(inplace=True)
      )
      (2): SqueezeExcitation(
        (avgpool): AdaptiveAvgPool2d(output_size=1)
        (fc1): Conv2d(144, 6, kernel_size=(1, 1), stride=(1, 1))
        (fc2): Conv2d(6, 144, kernel_size=(1, 1), stride=(1, 1))
        (activation): SiLU(inplace=True)
        (scale_activation): Sigmoid()
      )
      (3): ConvNormActivation(
        (0): Conv2d(144, 24, kernel_size=(1, 1), stride=(1, 1), bias=False)
        (1): BatchNorm2d(24, eps=1e-05, momentum=0.1, affine=True, track_running_stats=True)
      )
    )
    (stochastic_depth): StochasticDepth(p=0.034782608695652174, mode=row)
  )
), 'cnn1.features.2.0': MBConv(
  (block): Sequential(
    (0): ConvNormActivation(
      (0): Conv2d(16, 96, kernel_size=(1, 1), stride=(1, 1), bias=False)
      (1): BatchNorm2d(96, eps=1e-05, momentum=0.1, affine=True, track_running_stats=True)
      (2): SiLU(inplace=True)
    )
    (1): ConvNormActivation(
      (0): Conv2d(96, 96, kernel_size=(3, 3), stride=(2, 2), padding=(1, 1), groups=96, bias=False)
      (1): BatchNorm2d(96, eps=1e-05, momentum=0.1, affine=True, track_running_stats=True)
      (2): SiLU(inplace=True)
    )
    (2): SqueezeExcitation(
      (avgpool): AdaptiveAvgPool2d(output_size=1)
      (fc1): Conv2d(96, 4, kernel_size=(1, 1), stride=(1, 1))
      (fc2): Conv2d(4, 96, kernel_size=(1, 1), stride=(1, 1))
      (activation): SiLU(inplace=True)
      (scale_activation): Sigmoid()
    )
    (3): ConvNormActivation(
      (0): Conv2d(96, 24, kernel_size=(1, 1), stride=(1, 1), bias=False)
      (1): BatchNorm2d(24, eps=1e-05, momentum=0.1, affine=True, track_running_stats=True)
    )
  )
  (stochastic_depth): StochasticDepth(p=0.017391304347826087, mode=row)
), 'cnn1.features.2.0.block': Sequential(
  (0): ConvNormActivation(
    (0): Conv2d(16, 96, kernel_size=(1, 1), stride=(1, 1), bias=False)
    (1): BatchNorm2d(96, eps=1e-05, momentum=0.1, affine=True, track_running_stats=True)
    (2): SiLU(inplace=True)
  )
  (1): ConvNormActivation(
    (0): Conv2d(96, 96, kernel_size=(3, 3), stride=(2, 2), padding=(1, 1), groups=96, bias=False)
    (1): BatchNorm2d(96, eps=1e-05, momentum=0.1, affine=True, track_running_stats=True)
    (2): SiLU(inplace=True)
  )
  (2): SqueezeExcitation(
    (avgpool): AdaptiveAvgPool2d(output_size=1)
    (fc1): Conv2d(96, 4, kernel_size=(1, 1), stride=(1, 1))
    (fc2): Conv2d(4, 96, kernel_size=(1, 1), stride=(1, 1))
    (activation): SiLU(inplace=True)
    (scale_activation): Sigmoid()
  )
  (3): ConvNormActivation(
    (0): Conv2d(96, 24, kernel_size=(1, 1), stride=(1, 1), bias=False)
    (1): BatchNorm2d(24, eps=1e-05, momentum=0.1, affine=True, track_running_stats=True)
  )
), 'cnn1.features.2.0.block.0': ConvNormActivation(
  (0): Conv2d(16, 96, kernel_size=(1, 1), stride=(1, 1), bias=False)
  (1): BatchNorm2d(96, eps=1e-05, momentum=0.1, affine=True, track_running_stats=True)
  (2): SiLU(inplace=True)
), 'cnn1.features.2.0.block.0.0': Conv2d(16, 96, kernel_size=(1, 1), stride=(1, 1), bias=False), 'cnn1.features.2.0.block.0.1': BatchNorm2d(96, eps=1e-05, momentum=0.1, affine=True, track_running_stats=True), 'cnn1.features.2.0.block.0.2': SiLU(inplace=True), 'cnn1.features.2.0.block.1': ConvNormActivation(
  (0): Conv2d(96, 96, kernel_size=(3, 3), stride=(2, 2), padding=(1, 1), groups=96, bias=False)
  (1): BatchNorm2d(96, eps=1e-05, momentum=0.1, affine=True, track_running_stats=True)
  (2): SiLU(inplace=True)
), 'cnn1.features.2.0.block.1.0': Conv2d(96, 96, kernel_size=(3, 3), stride=(2, 2), padding=(1, 1), groups=96, bias=False), 'cnn1.features.2.0.block.1.1': BatchNorm2d(96, eps=1e-05, momentum=0.1, affine=True, track_running_stats=True), 'cnn1.features.2.0.block.1.2': SiLU(inplace=True), 'cnn1.features.2.0.block.2': SqueezeExcitation(
  (avgpool): AdaptiveAvgPool2d(output_size=1)
  (fc1): Conv2d(96, 4, kernel_size=(1, 1), stride=(1, 1))
  (fc2): Conv2d(4, 96, kernel_size=(1, 1), stride=(1, 1))
  (activation): SiLU(inplace=True)
  (scale_activation): Sigmoid()
), 'cnn1.features.2.0.block.2.avgpool': AdaptiveAvgPool2d(output_size=1), 'cnn1.features.2.0.block.2.fc1': Conv2d(96, 4, kernel_size=(1, 1), stride=(1, 1)), 'cnn1.features.2.0.block.2.fc2': Conv2d(4, 96, kernel_size=(1, 1), stride=(1, 1)), 'cnn1.features.2.0.block.2.activation': SiLU(inplace=True), 'cnn1.features.2.0.block.2.scale_activation': Sigmoid(), 'cnn1.features.2.0.block.3': ConvNormActivation(
  (0): Conv2d(96, 24, kernel_size=(1, 1), stride=(1, 1), bias=False)
  (1): BatchNorm2d(24, eps=1e-05, momentum=0.1, affine=True, track_running_stats=True)
), 'cnn1.features.2.0.block.3.0': Conv2d(96, 24, kernel_size=(1, 1), stride=(1, 1), bias=False), 'cnn1.features.2.0.block.3.1': BatchNorm2d(24, eps=1e-05, momentum=0.1, affine=True, track_running_stats=True), 'cnn1.features.2.0.stochastic_depth': StochasticDepth(p=0.017391304347826087, mode=row), 'cnn1.features.2.1': MBConv(
  (block): Sequential(
    (0): ConvNormActivation(
      (0): Conv2d(24, 144, kernel_size=(1, 1), stride=(1, 1), bias=False)
      (1): BatchNorm2d(144, eps=1e-05, momentum=0.1, affine=True, track_running_stats=True)
      (2): SiLU(inplace=True)
    )
    (1): ConvNormActivation(
      (0): Conv2d(144, 144, kernel_size=(3, 3), stride=(1, 1), padding=(1, 1), groups=144, bias=False)
      (1): BatchNorm2d(144, eps=1e-05, momentum=0.1, affine=True, track_running_stats=True)
      (2): SiLU(inplace=True)
    )
    (2): SqueezeExcitation(
      (avgpool): AdaptiveAvgPool2d(output_size=1)
      (fc1): Conv2d(144, 6, kernel_size=(1, 1), stride=(1, 1))
      (fc2): Conv2d(6, 144, kernel_size=(1, 1), stride=(1, 1))
      (activation): SiLU(inplace=True)
      (scale_activation): Sigmoid()
    )
    (3): ConvNormActivation(
      (0): Conv2d(144, 24, kernel_size=(1, 1), stride=(1, 1), bias=False)
      (1): BatchNorm2d(24, eps=1e-05, momentum=0.1, affine=True, track_running_stats=True)
    )
  )
  (stochastic_depth): StochasticDepth(p=0.026086956521739136, mode=row)
), 'cnn1.features.2.1.block': Sequential(
  (0): ConvNormActivation(
    (0): Conv2d(24, 144, kernel_size=(1, 1), stride=(1, 1), bias=False)
    (1): BatchNorm2d(144, eps=1e-05, momentum=0.1, affine=True, track_running_stats=True)
    (2): SiLU(inplace=True)
  )
  (1): ConvNormActivation(
    (0): Conv2d(144, 144, kernel_size=(3, 3), stride=(1, 1), padding=(1, 1), groups=144, bias=False)
    (1): BatchNorm2d(144, eps=1e-05, momentum=0.1, affine=True, track_running_stats=True)
    (2): SiLU(inplace=True)
  )
  (2): SqueezeExcitation(
    (avgpool): AdaptiveAvgPool2d(output_size=1)
    (fc1): Conv2d(144, 6, kernel_size=(1, 1), stride=(1, 1))
    (fc2): Conv2d(6, 144, kernel_size=(1, 1), stride=(1, 1))
    (activation): SiLU(inplace=True)
    (scale_activation): Sigmoid()
  )
  (3): ConvNormActivation(
    (0): Conv2d(144, 24, kernel_size=(1, 1), stride=(1, 1), bias=False)
    (1): BatchNorm2d(24, eps=1e-05, momentum=0.1, affine=True, track_running_stats=True)
  )
), 'cnn1.features.2.1.block.0': ConvNormActivation(
  (0): Conv2d(24, 144, kernel_size=(1, 1), stride=(1, 1), bias=False)
  (1): BatchNorm2d(144, eps=1e-05, momentum=0.1, affine=True, track_running_stats=True)
  (2): SiLU(inplace=True)
), 'cnn1.features.2.1.block.0.0': Conv2d(24, 144, kernel_size=(1, 1), stride=(1, 1), bias=False), 'cnn1.features.2.1.block.0.1': BatchNorm2d(144, eps=1e-05, momentum=0.1, affine=True, track_running_stats=True), 'cnn1.features.2.1.block.0.2': SiLU(inplace=True), 'cnn1.features.2.1.block.1': ConvNormActivation(
  (0): Conv2d(144, 144, kernel_size=(3, 3), stride=(1, 1), padding=(1, 1), groups=144, bias=False)
  (1): BatchNorm2d(144, eps=1e-05, momentum=0.1, affine=True, track_running_stats=True)
  (2): SiLU(inplace=True)
), 'cnn1.features.2.1.block.1.0': Conv2d(144, 144, kernel_size=(3, 3), stride=(1, 1), padding=(1, 1), groups=144, bias=False), 'cnn1.features.2.1.block.1.1': BatchNorm2d(144, eps=1e-05, momentum=0.1, affine=True, track_running_stats=True), 'cnn1.features.2.1.block.1.2': SiLU(inplace=True), 'cnn1.features.2.1.block.2': SqueezeExcitation(
  (avgpool): AdaptiveAvgPool2d(output_size=1)
  (fc1): Conv2d(144, 6, kernel_size=(1, 1), stride=(1, 1))
  (fc2): Conv2d(6, 144, kernel_size=(1, 1), stride=(1, 1))
  (activation): SiLU(inplace=True)
  (scale_activation): Sigmoid()
), 'cnn1.features.2.1.block.2.avgpool': AdaptiveAvgPool2d(output_size=1), 'cnn1.features.2.1.block.2.fc1': Conv2d(144, 6, kernel_size=(1, 1), stride=(1, 1)), 'cnn1.features.2.1.block.2.fc2': Conv2d(6, 144, kernel_size=(1, 1), stride=(1, 1)), 'cnn1.features.2.1.block.2.activation': SiLU(inplace=True), 'cnn1.features.2.1.block.2.scale_activation': Sigmoid(), 'cnn1.features.2.1.block.3': ConvNormActivation(
  (0): Conv2d(144, 24, kernel_size=(1, 1), stride=(1, 1), bias=False)
  (1): BatchNorm2d(24, eps=1e-05, momentum=0.1, affine=True, track_running_stats=True)
), 'cnn1.features.2.1.block.3.0': Conv2d(144, 24, kernel_size=(1, 1), stride=(1, 1), bias=False), 'cnn1.features.2.1.block.3.1': BatchNorm2d(24, eps=1e-05, momentum=0.1, affine=True, track_running_stats=True), 'cnn1.features.2.1.stochastic_depth': StochasticDepth(p=0.026086956521739136, mode=row), 'cnn1.features.2.2': MBConv(
  (block): Sequential(
    (0): ConvNormActivation(
      (0): Conv2d(24, 144, kernel_size=(1, 1), stride=(1, 1), bias=False)
      (1): BatchNorm2d(144, eps=1e-05, momentum=0.1, affine=True, track_running_stats=True)
      (2): SiLU(inplace=True)
    )
    (1): ConvNormActivation(
      (0): Conv2d(144, 144, kernel_size=(3, 3), stride=(1, 1), padding=(1, 1), groups=144, bias=False)
      (1): BatchNorm2d(144, eps=1e-05, momentum=0.1, affine=True, track_running_stats=True)
      (2): SiLU(inplace=True)
    )
    (2): SqueezeExcitation(
      (avgpool): AdaptiveAvgPool2d(output_size=1)
      (fc1): Conv2d(144, 6, kernel_size=(1, 1), stride=(1, 1))
      (fc2): Conv2d(6, 144, kernel_size=(1, 1), stride=(1, 1))
      (activation): SiLU(inplace=True)
      (scale_activation): Sigmoid()
    )
    (3): ConvNormActivation(
      (0): Conv2d(144, 24, kernel_size=(1, 1), stride=(1, 1), bias=False)
      (1): BatchNorm2d(24, eps=1e-05, momentum=0.1, affine=True, track_running_stats=True)
    )
  )
  (stochastic_depth): StochasticDepth(p=0.034782608695652174, mode=row)
), 'cnn1.features.2.2.block': Sequential(
  (0): ConvNormActivation(
    (0): Conv2d(24, 144, kernel_size=(1, 1), stride=(1, 1), bias=False)
    (1): BatchNorm2d(144, eps=1e-05, momentum=0.1, affine=True, track_running_stats=True)
    (2): SiLU(inplace=True)
  )
  (1): ConvNormActivation(
    (0): Conv2d(144, 144, kernel_size=(3, 3), stride=(1, 1), padding=(1, 1), groups=144, bias=False)
    (1): BatchNorm2d(144, eps=1e-05, momentum=0.1, affine=True, track_running_stats=True)
    (2): SiLU(inplace=True)
  )
  (2): SqueezeExcitation(
    (avgpool): AdaptiveAvgPool2d(output_size=1)
    (fc1): Conv2d(144, 6, kernel_size=(1, 1), stride=(1, 1))
    (fc2): Conv2d(6, 144, kernel_size=(1, 1), stride=(1, 1))
    (activation): SiLU(inplace=True)
    (scale_activation): Sigmoid()
  )
  (3): ConvNormActivation(
    (0): Conv2d(144, 24, kernel_size=(1, 1), stride=(1, 1), bias=False)
    (1): BatchNorm2d(24, eps=1e-05, momentum=0.1, affine=True, track_running_stats=True)
  )
), 'cnn1.features.2.2.block.0': ConvNormActivation(
  (0): Conv2d(24, 144, kernel_size=(1, 1), stride=(1, 1), bias=False)
  (1): BatchNorm2d(144, eps=1e-05, momentum=0.1, affine=True, track_running_stats=True)
  (2): SiLU(inplace=True)
), 'cnn1.features.2.2.block.0.0': Conv2d(24, 144, kernel_size=(1, 1), stride=(1, 1), bias=False), 'cnn1.features.2.2.block.0.1': BatchNorm2d(144, eps=1e-05, momentum=0.1, affine=True, track_running_stats=True), 'cnn1.features.2.2.block.0.2': SiLU(inplace=True), 'cnn1.features.2.2.block.1': ConvNormActivation(
  (0): Conv2d(144, 144, kernel_size=(3, 3), stride=(1, 1), padding=(1, 1), groups=144, bias=False)
  (1): BatchNorm2d(144, eps=1e-05, momentum=0.1, affine=True, track_running_stats=True)
  (2): SiLU(inplace=True)
), 'cnn1.features.2.2.block.1.0': Conv2d(144, 144, kernel_size=(3, 3), stride=(1, 1), padding=(1, 1), groups=144, bias=False), 'cnn1.features.2.2.block.1.1': BatchNorm2d(144, eps=1e-05, momentum=0.1, affine=True, track_running_stats=True), 'cnn1.features.2.2.block.1.2': SiLU(inplace=True), 'cnn1.features.2.2.block.2': SqueezeExcitation(
  (avgpool): AdaptiveAvgPool2d(output_size=1)
  (fc1): Conv2d(144, 6, kernel_size=(1, 1), stride=(1, 1))
  (fc2): Conv2d(6, 144, kernel_size=(1, 1), stride=(1, 1))
  (activation): SiLU(inplace=True)
  (scale_activation): Sigmoid()
), 'cnn1.features.2.2.block.2.avgpool': AdaptiveAvgPool2d(output_size=1), 'cnn1.features.2.2.block.2.fc1': Conv2d(144, 6, kernel_size=(1, 1), stride=(1, 1)), 'cnn1.features.2.2.block.2.fc2': Conv2d(6, 144, kernel_size=(1, 1), stride=(1, 1)), 'cnn1.features.2.2.block.2.activation': SiLU(inplace=True), 'cnn1.features.2.2.block.2.scale_activation': Sigmoid(), 'cnn1.features.2.2.block.3': ConvNormActivation(
  (0): Conv2d(144, 24, kernel_size=(1, 1), stride=(1, 1), bias=False)
  (1): BatchNorm2d(24, eps=1e-05, momentum=0.1, affine=True, track_running_stats=True)
), 'cnn1.features.2.2.block.3.0': Conv2d(144, 24, kernel_size=(1, 1), stride=(1, 1), bias=False), 'cnn1.features.2.2.block.3.1': BatchNorm2d(24, eps=1e-05, momentum=0.1, affine=True, track_running_stats=True), 'cnn1.features.2.2.stochastic_depth': StochasticDepth(p=0.034782608695652174, mode=row), 'cnn1.features.3': Sequential(
  (0): MBConv(
    (block): Sequential(
      (0): ConvNormActivation(
        (0): Conv2d(24, 144, kernel_size=(1, 1), stride=(1, 1), bias=False)
        (1): BatchNorm2d(144, eps=1e-05, momentum=0.1, affine=True, track_running_stats=True)
        (2): SiLU(inplace=True)
      )
      (1): ConvNormActivation(
        (0): Conv2d(144, 144, kernel_size=(5, 5), stride=(2, 2), padding=(2, 2), groups=144, bias=False)
        (1): BatchNorm2d(144, eps=1e-05, momentum=0.1, affine=True, track_running_stats=True)
        (2): SiLU(inplace=True)
      )
      (2): SqueezeExcitation(
        (avgpool): AdaptiveAvgPool2d(output_size=1)
        (fc1): Conv2d(144, 6, kernel_size=(1, 1), stride=(1, 1))
        (fc2): Conv2d(6, 144, kernel_size=(1, 1), stride=(1, 1))
        (activation): SiLU(inplace=True)
        (scale_activation): Sigmoid()
      )
      (3): ConvNormActivation(
        (0): Conv2d(144, 40, kernel_size=(1, 1), stride=(1, 1), bias=False)
        (1): BatchNorm2d(40, eps=1e-05, momentum=0.1, affine=True, track_running_stats=True)
      )
    )
    (stochastic_depth): StochasticDepth(p=0.043478260869565216, mode=row)
  )
  (1): MBConv(
    (block): Sequential(
      (0): ConvNormActivation(
        (0): Conv2d(40, 240, kernel_size=(1, 1), stride=(1, 1), bias=False)
        (1): BatchNorm2d(240, eps=1e-05, momentum=0.1, affine=True, track_running_stats=True)
        (2): SiLU(inplace=True)
      )
      (1): ConvNormActivation(
        (0): Conv2d(240, 240, kernel_size=(5, 5), stride=(1, 1), padding=(2, 2), groups=240, bias=False)
        (1): BatchNorm2d(240, eps=1e-05, momentum=0.1, affine=True, track_running_stats=True)
        (2): SiLU(inplace=True)
      )
      (2): SqueezeExcitation(
        (avgpool): AdaptiveAvgPool2d(output_size=1)
        (fc1): Conv2d(240, 10, kernel_size=(1, 1), stride=(1, 1))
        (fc2): Conv2d(10, 240, kernel_size=(1, 1), stride=(1, 1))
        (activation): SiLU(inplace=True)
        (scale_activation): Sigmoid()
      )
      (3): ConvNormActivation(
        (0): Conv2d(240, 40, kernel_size=(1, 1), stride=(1, 1), bias=False)
        (1): BatchNorm2d(40, eps=1e-05, momentum=0.1, affine=True, track_running_stats=True)
      )
    )
    (stochastic_depth): StochasticDepth(p=0.05217391304347827, mode=row)
  )
  (2): MBConv(
    (block): Sequential(
      (0): ConvNormActivation(
        (0): Conv2d(40, 240, kernel_size=(1, 1), stride=(1, 1), bias=False)
        (1): BatchNorm2d(240, eps=1e-05, momentum=0.1, affine=True, track_running_stats=True)
        (2): SiLU(inplace=True)
      )
      (1): ConvNormActivation(
        (0): Conv2d(240, 240, kernel_size=(5, 5), stride=(1, 1), padding=(2, 2), groups=240, bias=False)
        (1): BatchNorm2d(240, eps=1e-05, momentum=0.1, affine=True, track_running_stats=True)
        (2): SiLU(inplace=True)
      )
      (2): SqueezeExcitation(
        (avgpool): AdaptiveAvgPool2d(output_size=1)
        (fc1): Conv2d(240, 10, kernel_size=(1, 1), stride=(1, 1))
        (fc2): Conv2d(10, 240, kernel_size=(1, 1), stride=(1, 1))
        (activation): SiLU(inplace=True)
        (scale_activation): Sigmoid()
      )
      (3): ConvNormActivation(
        (0): Conv2d(240, 40, kernel_size=(1, 1), stride=(1, 1), bias=False)
        (1): BatchNorm2d(40, eps=1e-05, momentum=0.1, affine=True, track_running_stats=True)
      )
    )
    (stochastic_depth): StochasticDepth(p=0.06086956521739131, mode=row)
  )
), 'cnn1.features.3.0': MBConv(
  (block): Sequential(
    (0): ConvNormActivation(
      (0): Conv2d(24, 144, kernel_size=(1, 1), stride=(1, 1), bias=False)
      (1): BatchNorm2d(144, eps=1e-05, momentum=0.1, affine=True, track_running_stats=True)
      (2): SiLU(inplace=True)
    )
    (1): ConvNormActivation(
      (0): Conv2d(144, 144, kernel_size=(5, 5), stride=(2, 2), padding=(2, 2), groups=144, bias=False)
      (1): BatchNorm2d(144, eps=1e-05, momentum=0.1, affine=True, track_running_stats=True)
      (2): SiLU(inplace=True)
    )
    (2): SqueezeExcitation(
      (avgpool): AdaptiveAvgPool2d(output_size=1)
      (fc1): Conv2d(144, 6, kernel_size=(1, 1), stride=(1, 1))
      (fc2): Conv2d(6, 144, kernel_size=(1, 1), stride=(1, 1))
      (activation): SiLU(inplace=True)
      (scale_activation): Sigmoid()
    )
    (3): ConvNormActivation(
      (0): Conv2d(144, 40, kernel_size=(1, 1), stride=(1, 1), bias=False)
      (1): BatchNorm2d(40, eps=1e-05, momentum=0.1, affine=True, track_running_stats=True)
    )
  )
  (stochastic_depth): StochasticDepth(p=0.043478260869565216, mode=row)
), 'cnn1.features.3.0.block': Sequential(
  (0): ConvNormActivation(
    (0): Conv2d(24, 144, kernel_size=(1, 1), stride=(1, 1), bias=False)
    (1): BatchNorm2d(144, eps=1e-05, momentum=0.1, affine=True, track_running_stats=True)
    (2): SiLU(inplace=True)
  )
  (1): ConvNormActivation(
    (0): Conv2d(144, 144, kernel_size=(5, 5), stride=(2, 2), padding=(2, 2), groups=144, bias=False)
    (1): BatchNorm2d(144, eps=1e-05, momentum=0.1, affine=True, track_running_stats=True)
    (2): SiLU(inplace=True)
  )
  (2): SqueezeExcitation(
    (avgpool): AdaptiveAvgPool2d(output_size=1)
    (fc1): Conv2d(144, 6, kernel_size=(1, 1), stride=(1, 1))
    (fc2): Conv2d(6, 144, kernel_size=(1, 1), stride=(1, 1))
    (activation): SiLU(inplace=True)
    (scale_activation): Sigmoid()
  )
  (3): ConvNormActivation(
    (0): Conv2d(144, 40, kernel_size=(1, 1), stride=(1, 1), bias=False)
    (1): BatchNorm2d(40, eps=1e-05, momentum=0.1, affine=True, track_running_stats=True)
  )
), 'cnn1.features.3.0.block.0': ConvNormActivation(
  (0): Conv2d(24, 144, kernel_size=(1, 1), stride=(1, 1), bias=False)
  (1): BatchNorm2d(144, eps=1e-05, momentum=0.1, affine=True, track_running_stats=True)
  (2): SiLU(inplace=True)
), 'cnn1.features.3.0.block.0.0': Conv2d(24, 144, kernel_size=(1, 1), stride=(1, 1), bias=False), 'cnn1.features.3.0.block.0.1': BatchNorm2d(144, eps=1e-05, momentum=0.1, affine=True, track_running_stats=True), 'cnn1.features.3.0.block.0.2': SiLU(inplace=True), 'cnn1.features.3.0.block.1': ConvNormActivation(
  (0): Conv2d(144, 144, kernel_size=(5, 5), stride=(2, 2), padding=(2, 2), groups=144, bias=False)
  (1): BatchNorm2d(144, eps=1e-05, momentum=0.1, affine=True, track_running_stats=True)
  (2): SiLU(inplace=True)
), 'cnn1.features.3.0.block.1.0': Conv2d(144, 144, kernel_size=(5, 5), stride=(2, 2), padding=(2, 2), groups=144, bias=False), 'cnn1.features.3.0.block.1.1': BatchNorm2d(144, eps=1e-05, momentum=0.1, affine=True, track_running_stats=True), 'cnn1.features.3.0.block.1.2': SiLU(inplace=True), 'cnn1.features.3.0.block.2': SqueezeExcitation(
  (avgpool): AdaptiveAvgPool2d(output_size=1)
  (fc1): Conv2d(144, 6, kernel_size=(1, 1), stride=(1, 1))
  (fc2): Conv2d(6, 144, kernel_size=(1, 1), stride=(1, 1))
  (activation): SiLU(inplace=True)
  (scale_activation): Sigmoid()
), 'cnn1.features.3.0.block.2.avgpool': AdaptiveAvgPool2d(output_size=1), 'cnn1.features.3.0.block.2.fc1': Conv2d(144, 6, kernel_size=(1, 1), stride=(1, 1)), 'cnn1.features.3.0.block.2.fc2': Conv2d(6, 144, kernel_size=(1, 1), stride=(1, 1)), 'cnn1.features.3.0.block.2.activation': SiLU(inplace=True), 'cnn1.features.3.0.block.2.scale_activation': Sigmoid(), 'cnn1.features.3.0.block.3': ConvNormActivation(
  (0): Conv2d(144, 40, kernel_size=(1, 1), stride=(1, 1), bias=False)
  (1): BatchNorm2d(40, eps=1e-05, momentum=0.1, affine=True, track_running_stats=True)
), 'cnn1.features.3.0.block.3.0': Conv2d(144, 40, kernel_size=(1, 1), stride=(1, 1), bias=False), 'cnn1.features.3.0.block.3.1': BatchNorm2d(40, eps=1e-05, momentum=0.1, affine=True, track_running_stats=True), 'cnn1.features.3.0.stochastic_depth': StochasticDepth(p=0.043478260869565216, mode=row), 'cnn1.features.3.1': MBConv(
  (block): Sequential(
    (0): ConvNormActivation(
      (0): Conv2d(40, 240, kernel_size=(1, 1), stride=(1, 1), bias=False)
      (1): BatchNorm2d(240, eps=1e-05, momentum=0.1, affine=True, track_running_stats=True)
      (2): SiLU(inplace=True)
    )
    (1): ConvNormActivation(
      (0): Conv2d(240, 240, kernel_size=(5, 5), stride=(1, 1), padding=(2, 2), groups=240, bias=False)
      (1): BatchNorm2d(240, eps=1e-05, momentum=0.1, affine=True, track_running_stats=True)
      (2): SiLU(inplace=True)
    )
    (2): SqueezeExcitation(
      (avgpool): AdaptiveAvgPool2d(output_size=1)
      (fc1): Conv2d(240, 10, kernel_size=(1, 1), stride=(1, 1))
      (fc2): Conv2d(10, 240, kernel_size=(1, 1), stride=(1, 1))
      (activation): SiLU(inplace=True)
      (scale_activation): Sigmoid()
    )
    (3): ConvNormActivation(
      (0): Conv2d(240, 40, kernel_size=(1, 1), stride=(1, 1), bias=False)
      (1): BatchNorm2d(40, eps=1e-05, momentum=0.1, affine=True, track_running_stats=True)
    )
  )
  (stochastic_depth): StochasticDepth(p=0.05217391304347827, mode=row)
), 'cnn1.features.3.1.block': Sequential(
  (0): ConvNormActivation(
    (0): Conv2d(40, 240, kernel_size=(1, 1), stride=(1, 1), bias=False)
    (1): BatchNorm2d(240, eps=1e-05, momentum=0.1, affine=True, track_running_stats=True)
    (2): SiLU(inplace=True)
  )
  (1): ConvNormActivation(
    (0): Conv2d(240, 240, kernel_size=(5, 5), stride=(1, 1), padding=(2, 2), groups=240, bias=False)
    (1): BatchNorm2d(240, eps=1e-05, momentum=0.1, affine=True, track_running_stats=True)
    (2): SiLU(inplace=True)
  )
  (2): SqueezeExcitation(
    (avgpool): AdaptiveAvgPool2d(output_size=1)
    (fc1): Conv2d(240, 10, kernel_size=(1, 1), stride=(1, 1))
    (fc2): Conv2d(10, 240, kernel_size=(1, 1), stride=(1, 1))
    (activation): SiLU(inplace=True)
    (scale_activation): Sigmoid()
  )
  (3): ConvNormActivation(
    (0): Conv2d(240, 40, kernel_size=(1, 1), stride=(1, 1), bias=False)
    (1): BatchNorm2d(40, eps=1e-05, momentum=0.1, affine=True, track_running_stats=True)
  )
), 'cnn1.features.3.1.block.0': ConvNormActivation(
  (0): Conv2d(40, 240, kernel_size=(1, 1), stride=(1, 1), bias=False)
  (1): BatchNorm2d(240, eps=1e-05, momentum=0.1, affine=True, track_running_stats=True)
  (2): SiLU(inplace=True)
), 'cnn1.features.3.1.block.0.0': Conv2d(40, 240, kernel_size=(1, 1), stride=(1, 1), bias=False), 'cnn1.features.3.1.block.0.1': BatchNorm2d(240, eps=1e-05, momentum=0.1, affine=True, track_running_stats=True), 'cnn1.features.3.1.block.0.2': SiLU(inplace=True), 'cnn1.features.3.1.block.1': ConvNormActivation(
  (0): Conv2d(240, 240, kernel_size=(5, 5), stride=(1, 1), padding=(2, 2), groups=240, bias=False)
  (1): BatchNorm2d(240, eps=1e-05, momentum=0.1, affine=True, track_running_stats=True)
  (2): SiLU(inplace=True)
), 'cnn1.features.3.1.block.1.0': Conv2d(240, 240, kernel_size=(5, 5), stride=(1, 1), padding=(2, 2), groups=240, bias=False), 'cnn1.features.3.1.block.1.1': BatchNorm2d(240, eps=1e-05, momentum=0.1, affine=True, track_running_stats=True), 'cnn1.features.3.1.block.1.2': SiLU(inplace=True), 'cnn1.features.3.1.block.2': SqueezeExcitation(
  (avgpool): AdaptiveAvgPool2d(output_size=1)
  (fc1): Conv2d(240, 10, kernel_size=(1, 1), stride=(1, 1))
  (fc2): Conv2d(10, 240, kernel_size=(1, 1), stride=(1, 1))
  (activation): SiLU(inplace=True)
  (scale_activation): Sigmoid()
), 'cnn1.features.3.1.block.2.avgpool': AdaptiveAvgPool2d(output_size=1), 'cnn1.features.3.1.block.2.fc1': Conv2d(240, 10, kernel_size=(1, 1), stride=(1, 1)), 'cnn1.features.3.1.block.2.fc2': Conv2d(10, 240, kernel_size=(1, 1), stride=(1, 1)), 'cnn1.features.3.1.block.2.activation': SiLU(inplace=True), 'cnn1.features.3.1.block.2.scale_activation': Sigmoid(), 'cnn1.features.3.1.block.3': ConvNormActivation(
  (0): Conv2d(240, 40, kernel_size=(1, 1), stride=(1, 1), bias=False)
  (1): BatchNorm2d(40, eps=1e-05, momentum=0.1, affine=True, track_running_stats=True)
), 'cnn1.features.3.1.block.3.0': Conv2d(240, 40, kernel_size=(1, 1), stride=(1, 1), bias=False), 'cnn1.features.3.1.block.3.1': BatchNorm2d(40, eps=1e-05, momentum=0.1, affine=True, track_running_stats=True), 'cnn1.features.3.1.stochastic_depth': StochasticDepth(p=0.05217391304347827, mode=row), 'cnn1.features.3.2': MBConv(
  (block): Sequential(
    (0): ConvNormActivation(
      (0): Conv2d(40, 240, kernel_size=(1, 1), stride=(1, 1), bias=False)
      (1): BatchNorm2d(240, eps=1e-05, momentum=0.1, affine=True, track_running_stats=True)
      (2): SiLU(inplace=True)
    )
    (1): ConvNormActivation(
      (0): Conv2d(240, 240, kernel_size=(5, 5), stride=(1, 1), padding=(2, 2), groups=240, bias=False)
      (1): BatchNorm2d(240, eps=1e-05, momentum=0.1, affine=True, track_running_stats=True)
      (2): SiLU(inplace=True)
    )
    (2): SqueezeExcitation(
      (avgpool): AdaptiveAvgPool2d(output_size=1)
      (fc1): Conv2d(240, 10, kernel_size=(1, 1), stride=(1, 1))
      (fc2): Conv2d(10, 240, kernel_size=(1, 1), stride=(1, 1))
      (activation): SiLU(inplace=True)
      (scale_activation): Sigmoid()
    )
    (3): ConvNormActivation(
      (0): Conv2d(240, 40, kernel_size=(1, 1), stride=(1, 1), bias=False)
      (1): BatchNorm2d(40, eps=1e-05, momentum=0.1, affine=True, track_running_stats=True)
    )
  )
  (stochastic_depth): StochasticDepth(p=0.06086956521739131, mode=row)
), 'cnn1.features.3.2.block': Sequential(
  (0): ConvNormActivation(
    (0): Conv2d(40, 240, kernel_size=(1, 1), stride=(1, 1), bias=False)
    (1): BatchNorm2d(240, eps=1e-05, momentum=0.1, affine=True, track_running_stats=True)
    (2): SiLU(inplace=True)
  )
  (1): ConvNormActivation(
    (0): Conv2d(240, 240, kernel_size=(5, 5), stride=(1, 1), padding=(2, 2), groups=240, bias=False)
    (1): BatchNorm2d(240, eps=1e-05, momentum=0.1, affine=True, track_running_stats=True)
    (2): SiLU(inplace=True)
  )
  (2): SqueezeExcitation(
    (avgpool): AdaptiveAvgPool2d(output_size=1)
    (fc1): Conv2d(240, 10, kernel_size=(1, 1), stride=(1, 1))
    (fc2): Conv2d(10, 240, kernel_size=(1, 1), stride=(1, 1))
    (activation): SiLU(inplace=True)
    (scale_activation): Sigmoid()
  )
  (3): ConvNormActivation(
    (0): Conv2d(240, 40, kernel_size=(1, 1), stride=(1, 1), bias=False)
    (1): BatchNorm2d(40, eps=1e-05, momentum=0.1, affine=True, track_running_stats=True)
  )
), 'cnn1.features.3.2.block.0': ConvNormActivation(
  (0): Conv2d(40, 240, kernel_size=(1, 1), stride=(1, 1), bias=False)
  (1): BatchNorm2d(240, eps=1e-05, momentum=0.1, affine=True, track_running_stats=True)
  (2): SiLU(inplace=True)
), 'cnn1.features.3.2.block.0.0': Conv2d(40, 240, kernel_size=(1, 1), stride=(1, 1), bias=False), 'cnn1.features.3.2.block.0.1': BatchNorm2d(240, eps=1e-05, momentum=0.1, affine=True, track_running_stats=True), 'cnn1.features.3.2.block.0.2': SiLU(inplace=True), 'cnn1.features.3.2.block.1': ConvNormActivation(
  (0): Conv2d(240, 240, kernel_size=(5, 5), stride=(1, 1), padding=(2, 2), groups=240, bias=False)
  (1): BatchNorm2d(240, eps=1e-05, momentum=0.1, affine=True, track_running_stats=True)
  (2): SiLU(inplace=True)
), 'cnn1.features.3.2.block.1.0': Conv2d(240, 240, kernel_size=(5, 5), stride=(1, 1), padding=(2, 2), groups=240, bias=False), 'cnn1.features.3.2.block.1.1': BatchNorm2d(240, eps=1e-05, momentum=0.1, affine=True, track_running_stats=True), 'cnn1.features.3.2.block.1.2': SiLU(inplace=True), 'cnn1.features.3.2.block.2': SqueezeExcitation(
  (avgpool): AdaptiveAvgPool2d(output_size=1)
  (fc1): Conv2d(240, 10, kernel_size=(1, 1), stride=(1, 1))
  (fc2): Conv2d(10, 240, kernel_size=(1, 1), stride=(1, 1))
  (activation): SiLU(inplace=True)
  (scale_activation): Sigmoid()
), 'cnn1.features.3.2.block.2.avgpool': AdaptiveAvgPool2d(output_size=1), 'cnn1.features.3.2.block.2.fc1': Conv2d(240, 10, kernel_size=(1, 1), stride=(1, 1)), 'cnn1.features.3.2.block.2.fc2': Conv2d(10, 240, kernel_size=(1, 1), stride=(1, 1)), 'cnn1.features.3.2.block.2.activation': SiLU(inplace=True), 'cnn1.features.3.2.block.2.scale_activation': Sigmoid(), 'cnn1.features.3.2.block.3': ConvNormActivation(
  (0): Conv2d(240, 40, kernel_size=(1, 1), stride=(1, 1), bias=False)
  (1): BatchNorm2d(40, eps=1e-05, momentum=0.1, affine=True, track_running_stats=True)
), 'cnn1.features.3.2.block.3.0': Conv2d(240, 40, kernel_size=(1, 1), stride=(1, 1), bias=False), 'cnn1.features.3.2.block.3.1': BatchNorm2d(40, eps=1e-05, momentum=0.1, affine=True, track_running_stats=True), 'cnn1.features.3.2.stochastic_depth': StochasticDepth(p=0.06086956521739131, mode=row), 'cnn1.features.4': Sequential(
  (0): MBConv(
    (block): Sequential(
      (0): ConvNormActivation(
        (0): Conv2d(40, 240, kernel_size=(1, 1), stride=(1, 1), bias=False)
        (1): BatchNorm2d(240, eps=1e-05, momentum=0.1, affine=True, track_running_stats=True)
        (2): SiLU(inplace=True)
      )
      (1): ConvNormActivation(
        (0): Conv2d(240, 240, kernel_size=(3, 3), stride=(2, 2), padding=(1, 1), groups=240, bias=False)
        (1): BatchNorm2d(240, eps=1e-05, momentum=0.1, affine=True, track_running_stats=True)
        (2): SiLU(inplace=True)
      )
      (2): SqueezeExcitation(
        (avgpool): AdaptiveAvgPool2d(output_size=1)
        (fc1): Conv2d(240, 10, kernel_size=(1, 1), stride=(1, 1))
        (fc2): Conv2d(10, 240, kernel_size=(1, 1), stride=(1, 1))
        (activation): SiLU(inplace=True)
        (scale_activation): Sigmoid()
      )
      (3): ConvNormActivation(
        (0): Conv2d(240, 80, kernel_size=(1, 1), stride=(1, 1), bias=False)
        (1): BatchNorm2d(80, eps=1e-05, momentum=0.1, affine=True, track_running_stats=True)
      )
    )
    (stochastic_depth): StochasticDepth(p=0.06956521739130435, mode=row)
  )
  (1): MBConv(
    (block): Sequential(
      (0): ConvNormActivation(
        (0): Conv2d(80, 480, kernel_size=(1, 1), stride=(1, 1), bias=False)
        (1): BatchNorm2d(480, eps=1e-05, momentum=0.1, affine=True, track_running_stats=True)
        (2): SiLU(inplace=True)
      )
      (1): ConvNormActivation(
        (0): Conv2d(480, 480, kernel_size=(3, 3), stride=(1, 1), padding=(1, 1), groups=480, bias=False)
        (1): BatchNorm2d(480, eps=1e-05, momentum=0.1, affine=True, track_running_stats=True)
        (2): SiLU(inplace=True)
      )
      (2): SqueezeExcitation(
        (avgpool): AdaptiveAvgPool2d(output_size=1)
        (fc1): Conv2d(480, 20, kernel_size=(1, 1), stride=(1, 1))
        (fc2): Conv2d(20, 480, kernel_size=(1, 1), stride=(1, 1))
        (activation): SiLU(inplace=True)
        (scale_activation): Sigmoid()
      )
      (3): ConvNormActivation(
        (0): Conv2d(480, 80, kernel_size=(1, 1), stride=(1, 1), bias=False)
        (1): BatchNorm2d(80, eps=1e-05, momentum=0.1, affine=True, track_running_stats=True)
      )
    )
    (stochastic_depth): StochasticDepth(p=0.0782608695652174, mode=row)
  )
  (2): MBConv(
    (block): Sequential(
      (0): ConvNormActivation(
        (0): Conv2d(80, 480, kernel_size=(1, 1), stride=(1, 1), bias=False)
        (1): BatchNorm2d(480, eps=1e-05, momentum=0.1, affine=True, track_running_stats=True)
        (2): SiLU(inplace=True)
      )
      (1): ConvNormActivation(
        (0): Conv2d(480, 480, kernel_size=(3, 3), stride=(1, 1), padding=(1, 1), groups=480, bias=False)
        (1): BatchNorm2d(480, eps=1e-05, momentum=0.1, affine=True, track_running_stats=True)
        (2): SiLU(inplace=True)
      )
      (2): SqueezeExcitation(
        (avgpool): AdaptiveAvgPool2d(output_size=1)
        (fc1): Conv2d(480, 20, kernel_size=(1, 1), stride=(1, 1))
        (fc2): Conv2d(20, 480, kernel_size=(1, 1), stride=(1, 1))
        (activation): SiLU(inplace=True)
        (scale_activation): Sigmoid()
      )
      (3): ConvNormActivation(
        (0): Conv2d(480, 80, kernel_size=(1, 1), stride=(1, 1), bias=False)
        (1): BatchNorm2d(80, eps=1e-05, momentum=0.1, affine=True, track_running_stats=True)
      )
    )
    (stochastic_depth): StochasticDepth(p=0.08695652173913043, mode=row)
  )
  (3): MBConv(
    (block): Sequential(
      (0): ConvNormActivation(
        (0): Conv2d(80, 480, kernel_size=(1, 1), stride=(1, 1), bias=False)
        (1): BatchNorm2d(480, eps=1e-05, momentum=0.1, affine=True, track_running_stats=True)
        (2): SiLU(inplace=True)
      )
      (1): ConvNormActivation(
        (0): Conv2d(480, 480, kernel_size=(3, 3), stride=(1, 1), padding=(1, 1), groups=480, bias=False)
        (1): BatchNorm2d(480, eps=1e-05, momentum=0.1, affine=True, track_running_stats=True)
        (2): SiLU(inplace=True)
      )
      (2): SqueezeExcitation(
        (avgpool): AdaptiveAvgPool2d(output_size=1)
        (fc1): Conv2d(480, 20, kernel_size=(1, 1), stride=(1, 1))
        (fc2): Conv2d(20, 480, kernel_size=(1, 1), stride=(1, 1))
        (activation): SiLU(inplace=True)
        (scale_activation): Sigmoid()
      )
      (3): ConvNormActivation(
        (0): Conv2d(480, 80, kernel_size=(1, 1), stride=(1, 1), bias=False)
        (1): BatchNorm2d(80, eps=1e-05, momentum=0.1, affine=True, track_running_stats=True)
      )
    )
    (stochastic_depth): StochasticDepth(p=0.09565217391304348, mode=row)
  )
), 'cnn1.features.4.0': MBConv(
  (block): Sequential(
    (0): ConvNormActivation(
      (0): Conv2d(40, 240, kernel_size=(1, 1), stride=(1, 1), bias=False)
      (1): BatchNorm2d(240, eps=1e-05, momentum=0.1, affine=True, track_running_stats=True)
      (2): SiLU(inplace=True)
    )
    (1): ConvNormActivation(
      (0): Conv2d(240, 240, kernel_size=(3, 3), stride=(2, 2), padding=(1, 1), groups=240, bias=False)
      (1): BatchNorm2d(240, eps=1e-05, momentum=0.1, affine=True, track_running_stats=True)
      (2): SiLU(inplace=True)
    )
    (2): SqueezeExcitation(
      (avgpool): AdaptiveAvgPool2d(output_size=1)
      (fc1): Conv2d(240, 10, kernel_size=(1, 1), stride=(1, 1))
      (fc2): Conv2d(10, 240, kernel_size=(1, 1), stride=(1, 1))
      (activation): SiLU(inplace=True)
      (scale_activation): Sigmoid()
    )
    (3): ConvNormActivation(
      (0): Conv2d(240, 80, kernel_size=(1, 1), stride=(1, 1), bias=False)
      (1): BatchNorm2d(80, eps=1e-05, momentum=0.1, affine=True, track_running_stats=True)
    )
  )
  (stochastic_depth): StochasticDepth(p=0.06956521739130435, mode=row)
), 'cnn1.features.4.0.block': Sequential(
  (0): ConvNormActivation(
    (0): Conv2d(40, 240, kernel_size=(1, 1), stride=(1, 1), bias=False)
    (1): BatchNorm2d(240, eps=1e-05, momentum=0.1, affine=True, track_running_stats=True)
    (2): SiLU(inplace=True)
  )
  (1): ConvNormActivation(
    (0): Conv2d(240, 240, kernel_size=(3, 3), stride=(2, 2), padding=(1, 1), groups=240, bias=False)
    (1): BatchNorm2d(240, eps=1e-05, momentum=0.1, affine=True, track_running_stats=True)
    (2): SiLU(inplace=True)
  )
  (2): SqueezeExcitation(
    (avgpool): AdaptiveAvgPool2d(output_size=1)
    (fc1): Conv2d(240, 10, kernel_size=(1, 1), stride=(1, 1))
    (fc2): Conv2d(10, 240, kernel_size=(1, 1), stride=(1, 1))
    (activation): SiLU(inplace=True)
    (scale_activation): Sigmoid()
  )
  (3): ConvNormActivation(
    (0): Conv2d(240, 80, kernel_size=(1, 1), stride=(1, 1), bias=False)
    (1): BatchNorm2d(80, eps=1e-05, momentum=0.1, affine=True, track_running_stats=True)
  )
), 'cnn1.features.4.0.block.0': ConvNormActivation(
  (0): Conv2d(40, 240, kernel_size=(1, 1), stride=(1, 1), bias=False)
  (1): BatchNorm2d(240, eps=1e-05, momentum=0.1, affine=True, track_running_stats=True)
  (2): SiLU(inplace=True)
), 'cnn1.features.4.0.block.0.0': Conv2d(40, 240, kernel_size=(1, 1), stride=(1, 1), bias=False), 'cnn1.features.4.0.block.0.1': BatchNorm2d(240, eps=1e-05, momentum=0.1, affine=True, track_running_stats=True), 'cnn1.features.4.0.block.0.2': SiLU(inplace=True), 'cnn1.features.4.0.block.1': ConvNormActivation(
  (0): Conv2d(240, 240, kernel_size=(3, 3), stride=(2, 2), padding=(1, 1), groups=240, bias=False)
  (1): BatchNorm2d(240, eps=1e-05, momentum=0.1, affine=True, track_running_stats=True)
  (2): SiLU(inplace=True)
), 'cnn1.features.4.0.block.1.0': Conv2d(240, 240, kernel_size=(3, 3), stride=(2, 2), padding=(1, 1), groups=240, bias=False), 'cnn1.features.4.0.block.1.1': BatchNorm2d(240, eps=1e-05, momentum=0.1, affine=True, track_running_stats=True), 'cnn1.features.4.0.block.1.2': SiLU(inplace=True), 'cnn1.features.4.0.block.2': SqueezeExcitation(
  (avgpool): AdaptiveAvgPool2d(output_size=1)
  (fc1): Conv2d(240, 10, kernel_size=(1, 1), stride=(1, 1))
  (fc2): Conv2d(10, 240, kernel_size=(1, 1), stride=(1, 1))
  (activation): SiLU(inplace=True)
  (scale_activation): Sigmoid()
), 'cnn1.features.4.0.block.2.avgpool': AdaptiveAvgPool2d(output_size=1), 'cnn1.features.4.0.block.2.fc1': Conv2d(240, 10, kernel_size=(1, 1), stride=(1, 1)), 'cnn1.features.4.0.block.2.fc2': Conv2d(10, 240, kernel_size=(1, 1), stride=(1, 1)), 'cnn1.features.4.0.block.2.activation': SiLU(inplace=True), 'cnn1.features.4.0.block.2.scale_activation': Sigmoid(), 'cnn1.features.4.0.block.3': ConvNormActivation(
  (0): Conv2d(240, 80, kernel_size=(1, 1), stride=(1, 1), bias=False)
  (1): BatchNorm2d(80, eps=1e-05, momentum=0.1, affine=True, track_running_stats=True)
), 'cnn1.features.4.0.block.3.0': Conv2d(240, 80, kernel_size=(1, 1), stride=(1, 1), bias=False), 'cnn1.features.4.0.block.3.1': BatchNorm2d(80, eps=1e-05, momentum=0.1, affine=True, track_running_stats=True), 'cnn1.features.4.0.stochastic_depth': StochasticDepth(p=0.06956521739130435, mode=row), 'cnn1.features.4.1': MBConv(
  (block): Sequential(
    (0): ConvNormActivation(
      (0): Conv2d(80, 480, kernel_size=(1, 1), stride=(1, 1), bias=False)
      (1): BatchNorm2d(480, eps=1e-05, momentum=0.1, affine=True, track_running_stats=True)
      (2): SiLU(inplace=True)
    )
    (1): ConvNormActivation(
      (0): Conv2d(480, 480, kernel_size=(3, 3), stride=(1, 1), padding=(1, 1), groups=480, bias=False)
      (1): BatchNorm2d(480, eps=1e-05, momentum=0.1, affine=True, track_running_stats=True)
      (2): SiLU(inplace=True)
    )
    (2): SqueezeExcitation(
      (avgpool): AdaptiveAvgPool2d(output_size=1)
      (fc1): Conv2d(480, 20, kernel_size=(1, 1), stride=(1, 1))
      (fc2): Conv2d(20, 480, kernel_size=(1, 1), stride=(1, 1))
      (activation): SiLU(inplace=True)
      (scale_activation): Sigmoid()
    )
    (3): ConvNormActivation(
      (0): Conv2d(480, 80, kernel_size=(1, 1), stride=(1, 1), bias=False)
      (1): BatchNorm2d(80, eps=1e-05, momentum=0.1, affine=True, track_running_stats=True)
    )
  )
  (stochastic_depth): StochasticDepth(p=0.0782608695652174, mode=row)
), 'cnn1.features.4.1.block': Sequential(
  (0): ConvNormActivation(
    (0): Conv2d(80, 480, kernel_size=(1, 1), stride=(1, 1), bias=False)
    (1): BatchNorm2d(480, eps=1e-05, momentum=0.1, affine=True, track_running_stats=True)
    (2): SiLU(inplace=True)
  )
  (1): ConvNormActivation(
    (0): Conv2d(480, 480, kernel_size=(3, 3), stride=(1, 1), padding=(1, 1), groups=480, bias=False)
    (1): BatchNorm2d(480, eps=1e-05, momentum=0.1, affine=True, track_running_stats=True)
    (2): SiLU(inplace=True)
  )
  (2): SqueezeExcitation(
    (avgpool): AdaptiveAvgPool2d(output_size=1)
    (fc1): Conv2d(480, 20, kernel_size=(1, 1), stride=(1, 1))
    (fc2): Conv2d(20, 480, kernel_size=(1, 1), stride=(1, 1))
    (activation): SiLU(inplace=True)
    (scale_activation): Sigmoid()
  )
  (3): ConvNormActivation(
    (0): Conv2d(480, 80, kernel_size=(1, 1), stride=(1, 1), bias=False)
    (1): BatchNorm2d(80, eps=1e-05, momentum=0.1, affine=True, track_running_stats=True)
  )
), 'cnn1.features.4.1.block.0': ConvNormActivation(
  (0): Conv2d(80, 480, kernel_size=(1, 1), stride=(1, 1), bias=False)
  (1): BatchNorm2d(480, eps=1e-05, momentum=0.1, affine=True, track_running_stats=True)
  (2): SiLU(inplace=True)
), 'cnn1.features.4.1.block.0.0': Conv2d(80, 480, kernel_size=(1, 1), stride=(1, 1), bias=False), 'cnn1.features.4.1.block.0.1': BatchNorm2d(480, eps=1e-05, momentum=0.1, affine=True, track_running_stats=True), 'cnn1.features.4.1.block.0.2': SiLU(inplace=True), 'cnn1.features.4.1.block.1': ConvNormActivation(
  (0): Conv2d(480, 480, kernel_size=(3, 3), stride=(1, 1), padding=(1, 1), groups=480, bias=False)
  (1): BatchNorm2d(480, eps=1e-05, momentum=0.1, affine=True, track_running_stats=True)
  (2): SiLU(inplace=True)
), 'cnn1.features.4.1.block.1.0': Conv2d(480, 480, kernel_size=(3, 3), stride=(1, 1), padding=(1, 1), groups=480, bias=False), 'cnn1.features.4.1.block.1.1': BatchNorm2d(480, eps=1e-05, momentum=0.1, affine=True, track_running_stats=True), 'cnn1.features.4.1.block.1.2': SiLU(inplace=True), 'cnn1.features.4.1.block.2': SqueezeExcitation(
  (avgpool): AdaptiveAvgPool2d(output_size=1)
  (fc1): Conv2d(480, 20, kernel_size=(1, 1), stride=(1, 1))
  (fc2): Conv2d(20, 480, kernel_size=(1, 1), stride=(1, 1))
  (activation): SiLU(inplace=True)
  (scale_activation): Sigmoid()
), 'cnn1.features.4.1.block.2.avgpool': AdaptiveAvgPool2d(output_size=1), 'cnn1.features.4.1.block.2.fc1': Conv2d(480, 20, kernel_size=(1, 1), stride=(1, 1)), 'cnn1.features.4.1.block.2.fc2': Conv2d(20, 480, kernel_size=(1, 1), stride=(1, 1)), 'cnn1.features.4.1.block.2.activation': SiLU(inplace=True), 'cnn1.features.4.1.block.2.scale_activation': Sigmoid(), 'cnn1.features.4.1.block.3': ConvNormActivation(
  (0): Conv2d(480, 80, kernel_size=(1, 1), stride=(1, 1), bias=False)
  (1): BatchNorm2d(80, eps=1e-05, momentum=0.1, affine=True, track_running_stats=True)
), 'cnn1.features.4.1.block.3.0': Conv2d(480, 80, kernel_size=(1, 1), stride=(1, 1), bias=False), 'cnn1.features.4.1.block.3.1': BatchNorm2d(80, eps=1e-05, momentum=0.1, affine=True, track_running_stats=True), 'cnn1.features.4.1.stochastic_depth': StochasticDepth(p=0.0782608695652174, mode=row), 'cnn1.features.4.2': MBConv(
  (block): Sequential(
    (0): ConvNormActivation(
      (0): Conv2d(80, 480, kernel_size=(1, 1), stride=(1, 1), bias=False)
      (1): BatchNorm2d(480, eps=1e-05, momentum=0.1, affine=True, track_running_stats=True)
      (2): SiLU(inplace=True)
    )
    (1): ConvNormActivation(
      (0): Conv2d(480, 480, kernel_size=(3, 3), stride=(1, 1), padding=(1, 1), groups=480, bias=False)
      (1): BatchNorm2d(480, eps=1e-05, momentum=0.1, affine=True, track_running_stats=True)
      (2): SiLU(inplace=True)
    )
    (2): SqueezeExcitation(
      (avgpool): AdaptiveAvgPool2d(output_size=1)
      (fc1): Conv2d(480, 20, kernel_size=(1, 1), stride=(1, 1))
      (fc2): Conv2d(20, 480, kernel_size=(1, 1), stride=(1, 1))
      (activation): SiLU(inplace=True)
      (scale_activation): Sigmoid()
    )
    (3): ConvNormActivation(
      (0): Conv2d(480, 80, kernel_size=(1, 1), stride=(1, 1), bias=False)
      (1): BatchNorm2d(80, eps=1e-05, momentum=0.1, affine=True, track_running_stats=True)
    )
  )
  (stochastic_depth): StochasticDepth(p=0.08695652173913043, mode=row)
), 'cnn1.features.4.2.block': Sequential(
  (0): ConvNormActivation(
    (0): Conv2d(80, 480, kernel_size=(1, 1), stride=(1, 1), bias=False)
    (1): BatchNorm2d(480, eps=1e-05, momentum=0.1, affine=True, track_running_stats=True)
    (2): SiLU(inplace=True)
  )
  (1): ConvNormActivation(
    (0): Conv2d(480, 480, kernel_size=(3, 3), stride=(1, 1), padding=(1, 1), groups=480, bias=False)
    (1): BatchNorm2d(480, eps=1e-05, momentum=0.1, affine=True, track_running_stats=True)
    (2): SiLU(inplace=True)
  )
  (2): SqueezeExcitation(
    (avgpool): AdaptiveAvgPool2d(output_size=1)
    (fc1): Conv2d(480, 20, kernel_size=(1, 1), stride=(1, 1))
    (fc2): Conv2d(20, 480, kernel_size=(1, 1), stride=(1, 1))
    (activation): SiLU(inplace=True)
    (scale_activation): Sigmoid()
  )
  (3): ConvNormActivation(
    (0): Conv2d(480, 80, kernel_size=(1, 1), stride=(1, 1), bias=False)
    (1): BatchNorm2d(80, eps=1e-05, momentum=0.1, affine=True, track_running_stats=True)
  )
), 'cnn1.features.4.2.block.0': ConvNormActivation(
  (0): Conv2d(80, 480, kernel_size=(1, 1), stride=(1, 1), bias=False)
  (1): BatchNorm2d(480, eps=1e-05, momentum=0.1, affine=True, track_running_stats=True)
  (2): SiLU(inplace=True)
), 'cnn1.features.4.2.block.0.0': Conv2d(80, 480, kernel_size=(1, 1), stride=(1, 1), bias=False), 'cnn1.features.4.2.block.0.1': BatchNorm2d(480, eps=1e-05, momentum=0.1, affine=True, track_running_stats=True), 'cnn1.features.4.2.block.0.2': SiLU(inplace=True), 'cnn1.features.4.2.block.1': ConvNormActivation(
  (0): Conv2d(480, 480, kernel_size=(3, 3), stride=(1, 1), padding=(1, 1), groups=480, bias=False)
  (1): BatchNorm2d(480, eps=1e-05, momentum=0.1, affine=True, track_running_stats=True)
  (2): SiLU(inplace=True)
), 'cnn1.features.4.2.block.1.0': Conv2d(480, 480, kernel_size=(3, 3), stride=(1, 1), padding=(1, 1), groups=480, bias=False), 'cnn1.features.4.2.block.1.1': BatchNorm2d(480, eps=1e-05, momentum=0.1, affine=True, track_running_stats=True), 'cnn1.features.4.2.block.1.2': SiLU(inplace=True), 'cnn1.features.4.2.block.2': SqueezeExcitation(
  (avgpool): AdaptiveAvgPool2d(output_size=1)
  (fc1): Conv2d(480, 20, kernel_size=(1, 1), stride=(1, 1))
  (fc2): Conv2d(20, 480, kernel_size=(1, 1), stride=(1, 1))
  (activation): SiLU(inplace=True)
  (scale_activation): Sigmoid()
), 'cnn1.features.4.2.block.2.avgpool': AdaptiveAvgPool2d(output_size=1), 'cnn1.features.4.2.block.2.fc1': Conv2d(480, 20, kernel_size=(1, 1), stride=(1, 1)), 'cnn1.features.4.2.block.2.fc2': Conv2d(20, 480, kernel_size=(1, 1), stride=(1, 1)), 'cnn1.features.4.2.block.2.activation': SiLU(inplace=True), 'cnn1.features.4.2.block.2.scale_activation': Sigmoid(), 'cnn1.features.4.2.block.3': ConvNormActivation(
  (0): Conv2d(480, 80, kernel_size=(1, 1), stride=(1, 1), bias=False)
  (1): BatchNorm2d(80, eps=1e-05, momentum=0.1, affine=True, track_running_stats=True)
), 'cnn1.features.4.2.block.3.0': Conv2d(480, 80, kernel_size=(1, 1), stride=(1, 1), bias=False), 'cnn1.features.4.2.block.3.1': BatchNorm2d(80, eps=1e-05, momentum=0.1, affine=True, track_running_stats=True), 'cnn1.features.4.2.stochastic_depth': StochasticDepth(p=0.08695652173913043, mode=row), 'cnn1.features.4.3': MBConv(
  (block): Sequential(
    (0): ConvNormActivation(
      (0): Conv2d(80, 480, kernel_size=(1, 1), stride=(1, 1), bias=False)
      (1): BatchNorm2d(480, eps=1e-05, momentum=0.1, affine=True, track_running_stats=True)
      (2): SiLU(inplace=True)
    )
    (1): ConvNormActivation(
      (0): Conv2d(480, 480, kernel_size=(3, 3), stride=(1, 1), padding=(1, 1), groups=480, bias=False)
      (1): BatchNorm2d(480, eps=1e-05, momentum=0.1, affine=True, track_running_stats=True)
      (2): SiLU(inplace=True)
    )
    (2): SqueezeExcitation(
      (avgpool): AdaptiveAvgPool2d(output_size=1)
      (fc1): Conv2d(480, 20, kernel_size=(1, 1), stride=(1, 1))
      (fc2): Conv2d(20, 480, kernel_size=(1, 1), stride=(1, 1))
      (activation): SiLU(inplace=True)
      (scale_activation): Sigmoid()
    )
    (3): ConvNormActivation(
      (0): Conv2d(480, 80, kernel_size=(1, 1), stride=(1, 1), bias=False)
      (1): BatchNorm2d(80, eps=1e-05, momentum=0.1, affine=True, track_running_stats=True)
    )
  )
  (stochastic_depth): StochasticDepth(p=0.09565217391304348, mode=row)
), 'cnn1.features.4.3.block': Sequential(
  (0): ConvNormActivation(
    (0): Conv2d(80, 480, kernel_size=(1, 1), stride=(1, 1), bias=False)
    (1): BatchNorm2d(480, eps=1e-05, momentum=0.1, affine=True, track_running_stats=True)
    (2): SiLU(inplace=True)
  )
  (1): ConvNormActivation(
    (0): Conv2d(480, 480, kernel_size=(3, 3), stride=(1, 1), padding=(1, 1), groups=480, bias=False)
    (1): BatchNorm2d(480, eps=1e-05, momentum=0.1, affine=True, track_running_stats=True)
    (2): SiLU(inplace=True)
  )
  (2): SqueezeExcitation(
    (avgpool): AdaptiveAvgPool2d(output_size=1)
    (fc1): Conv2d(480, 20, kernel_size=(1, 1), stride=(1, 1))
    (fc2): Conv2d(20, 480, kernel_size=(1, 1), stride=(1, 1))
    (activation): SiLU(inplace=True)
    (scale_activation): Sigmoid()
  )
  (3): ConvNormActivation(
    (0): Conv2d(480, 80, kernel_size=(1, 1), stride=(1, 1), bias=False)
    (1): BatchNorm2d(80, eps=1e-05, momentum=0.1, affine=True, track_running_stats=True)
  )
), 'cnn1.features.4.3.block.0': ConvNormActivation(
  (0): Conv2d(80, 480, kernel_size=(1, 1), stride=(1, 1), bias=False)
  (1): BatchNorm2d(480, eps=1e-05, momentum=0.1, affine=True, track_running_stats=True)
  (2): SiLU(inplace=True)
), 'cnn1.features.4.3.block.0.0': Conv2d(80, 480, kernel_size=(1, 1), stride=(1, 1), bias=False), 'cnn1.features.4.3.block.0.1': BatchNorm2d(480, eps=1e-05, momentum=0.1, affine=True, track_running_stats=True), 'cnn1.features.4.3.block.0.2': SiLU(inplace=True), 'cnn1.features.4.3.block.1': ConvNormActivation(
  (0): Conv2d(480, 480, kernel_size=(3, 3), stride=(1, 1), padding=(1, 1), groups=480, bias=False)
  (1): BatchNorm2d(480, eps=1e-05, momentum=0.1, affine=True, track_running_stats=True)
  (2): SiLU(inplace=True)
), 'cnn1.features.4.3.block.1.0': Conv2d(480, 480, kernel_size=(3, 3), stride=(1, 1), padding=(1, 1), groups=480, bias=False), 'cnn1.features.4.3.block.1.1': BatchNorm2d(480, eps=1e-05, momentum=0.1, affine=True, track_running_stats=True), 'cnn1.features.4.3.block.1.2': SiLU(inplace=True), 'cnn1.features.4.3.block.2': SqueezeExcitation(
  (avgpool): AdaptiveAvgPool2d(output_size=1)
  (fc1): Conv2d(480, 20, kernel_size=(1, 1), stride=(1, 1))
  (fc2): Conv2d(20, 480, kernel_size=(1, 1), stride=(1, 1))
  (activation): SiLU(inplace=True)
  (scale_activation): Sigmoid()
), 'cnn1.features.4.3.block.2.avgpool': AdaptiveAvgPool2d(output_size=1), 'cnn1.features.4.3.block.2.fc1': Conv2d(480, 20, kernel_size=(1, 1), stride=(1, 1)), 'cnn1.features.4.3.block.2.fc2': Conv2d(20, 480, kernel_size=(1, 1), stride=(1, 1)), 'cnn1.features.4.3.block.2.activation': SiLU(inplace=True), 'cnn1.features.4.3.block.2.scale_activation': Sigmoid(), 'cnn1.features.4.3.block.3': ConvNormActivation(…
), 'cnn1.features.5.1.block.0.0': Conv2d(112, 672, kernel_size=(1, 1), stride=(1, 1), bias=False), 'cnn1.features.5.1.block.0.1': BatchNorm2d(672, eps=1e-05, momentum=0.1, affine=True, track_running_stats=True), 'cnn1.features.5.1.block.0.2': SiLU(inplace=True), 'cnn1.features.5.1.block.1': ConvNormActivation(
  (0): Conv2d(672, 672, kernel_size=(5, 5), stride=(1, 1), padding=(2, 2), groups=672, bias=False)
  (1): BatchNorm2d(672, eps=1e-05, momentum=0.1, affine=True, track_running_stats=True)
  (2): SiLU(inplace=True)
), 'cnn1.features.5.1.block.1.0': Conv2d(672, 672, kernel_size=(5, 5), stride=(1, 1), padding=(2, 2), groups=672, bias=False), 'cnn1.features.5.1.block.1.1': BatchNorm2d(672, eps=1e-05, momentum=0.1, affine=True, track_running_stats=True), 'cnn1.features.5.1.block.1.2': SiLU(inplace=True), 'cnn1.features.5.1.block.2': SqueezeExcitation(
  (avgpool): AdaptiveAvgPool2d(output_size=1)
  (fc1): Conv2d(672, 28, kernel_size=(1, 1), stride=(1, 1))
  (fc2): Conv2d(28, 672, kernel_size=(1, 1), stride=(1, 1))
  (activation): SiLU(inplace=True)
  (scale_activation): Sigmoid()
), 'cnn1.features.5.1.block.2.avgpool': AdaptiveAvgPool2d(output_size=1), 'cnn1.features.5.1.block.2.fc1': Conv2d(672, 28, kernel_size=(1, 1), stride=(1, 1)), 'cnn1.features.5.1.block.2.fc2': Conv2d(28, 672, kernel_size=(1, 1), stride=(1, 1)), 'cnn1.features.5.1.block.2.activation': SiLU(inplace=True), 'cnn1.features.5.1.block.2.scale_activation': Sigmoid(), 'cnn1.features.5.1.block.3': ConvNormActivation(
  (0): Conv2d(672, 112, kernel_size=(1, 1), stride=(1, 1), bias=False)
  (1): BatchNorm2d(112, eps=1e-05, momentum=0.1, affine=True, track_running_stats=True)
), 'cnn1.features.5.1.block.3.0': Conv2d(672, 112, kernel_size=(1, 1), stride=(1, 1), bias=False), 'cnn1.features.5.1.block.3.1': BatchNorm2d(112, eps=1e-05, momentum=0.1, affine=True, track_running_stats=True), 'cnn1.features.5.1.stochastic_depth': StochasticDepth(p=0.11304347826086956, mode=row), 'cnn1.features.5.2': MBConv(
  (block): Sequential(
    (0): ConvNormActivation(
      (0): Conv2d(112, 672, kernel_size=(1, 1), stride=(1, 1), bias=False)
      (1): BatchNorm2d(672, eps=1e-05, momentum=0.1, affine=True, track_running_stats=True)
      (2): SiLU(inplace=True)
    )
    (1): ConvNormActivation(
      (0): Conv2d(672, 672, kernel_size=(5, 5), stride=(1, 1), padding=(2, 2), groups=672, bias=False)
      (1): BatchNorm2d(672, eps=1e-05, momentum=0.1, affine=True, track_running_stats=True)
      (2): SiLU(inplace=True)
    )
    (2): SqueezeExcitation(
      (avgpool): AdaptiveAvgPool2d(output_size=1)
      (fc1): Conv2d(672, 28, kernel_size=(1, 1), stride=(1, 1))
      (fc2): Conv2d(28, 672, kernel_size=(1, 1), stride=(1, 1))
      (activation): SiLU(inplace=True)
      (scale_activation): Sigmoid()
    )
    (3): ConvNormActivation(
      (0): Conv2d(672, 112, kernel_size=(1, 1), stride=(1, 1), bias=False)
      (1): BatchNorm2d(112, eps=1e-05, momentum=0.1, affine=True, track_running_stats=True)
    )
  )
  (stochastic_depth): StochasticDepth(p=0.12173913043478261, mode=row)
), 'cnn1.features.5.2.block': Sequential(
  (0): ConvNormActivation(
    (0): Conv2d(112, 672, kernel_size=(1, 1), stride=(1, 1), bias=False)
    (1): BatchNorm2d(672, eps=1e-05, momentum=0.1, affine=True, track_running_stats=True)
    (2): SiLU(inplace=True)
  )
  (1): ConvNormActivation(
    (0): Conv2d(672, 672, kernel_size=(5, 5), stride=(1, 1), padding=(2, 2), groups=672, bias=False)
    (1): BatchNorm2d(672, eps=1e-05, momentum=0.1, affine=True, track_running_stats=True)
    (2): SiLU(inplace=True)
  )
  (2): SqueezeExcitation(
    (avgpool): AdaptiveAvgPool2d(output_size=1)
    (fc1): Conv2d(672, 28, kernel_size=(1, 1), stride=(1, 1))
    (fc2): Conv2d(28, 672, kernel_size=(1, 1), stride=(1, 1))
    (activation): SiLU(inplace=True)
    (scale_activation): Sigmoid()
  )
  (3): ConvNormActivation(
    (0): Conv2d(672, 112, kernel_size=(1, 1), stride=(1, 1), bias=False)
    (1): BatchNorm2d(112, eps=1e-05, momentum=0.1, affine=True, track_running_stats=True)
  )
), 'cnn1.features.5.2.block.0': ConvNormActivation(
  (0): Conv2d(112, 672, kernel_size=(1, 1), stride=(1, 1), bias=False)
  (1): BatchNorm2d(672, eps=1e-05, momentum=0.1, affine=True, track_running_stats=True)
  (2): SiLU(inplace=True)
), 'cnn1.features.5.2.block.0.0': Conv2d(112, 672, kernel_size=(1, 1), stride=(1, 1), bias=False), 'cnn1.features.5.2.block.0.1': BatchNorm2d(672, eps=1e-05, momentum=0.1, affine=True, track_running_stats=True), 'cnn1.features.5.2.block.0.2': SiLU(inplace=True), 'cnn1.features.5.2.block.1': ConvNormActivation(
  (0): Conv2d(672, 672, kernel_size=(5, 5), stride=(1, 1), padding=(2, 2), groups=672, bias=False)
  (1): BatchNorm2d(672, eps=1e-05, momentum=0.1, affine=True, track_running_stats=True)
  (2): SiLU(inplace=True)
), 'cnn1.features.5.2.block.1.0': Conv2d(672, 672, kernel_size=(5, 5), stride=(1, 1), padding=(2, 2), groups=672, bias=False), 'cnn1.features.5.2.block.1.1': BatchNorm2d(672, eps=1e-05, momentum=0.1, affine=True, track_running_stats=True), 'cnn1.features.5.2.block.1.2': SiLU(inplace=True), 'cnn1.features.5.2.block.2': SqueezeExcitation(
  (avgpool): AdaptiveAvgPool2d(output_size=1)
  (fc1): Conv2d(672, 28, kernel_size=(1, 1), stride=(1, 1))
  (fc2): Conv2d(28, 672, kernel_size=(1, 1), stride=(1, 1))
  (activation): SiLU(inplace=True)
  (scale_activation): Sigmoid()
), 'cnn1.features.5.2.block.2.avgpool': AdaptiveAvgPool2d(output_size=1), 'cnn1.features.5.2.block.2.fc1': Conv2d(672, 28, kernel_size=(1, 1), stride=(1, 1)), 'cnn1.features.5.2.block.2.fc2': Conv2d(28, 672, kernel_size=(1, 1), stride=(1, 1)), 'cnn1.features.5.2.block.2.activation': SiLU(inplace=True), 'cnn1.features.5.2.block.2.scale_activation': Sigmoid(), 'cnn1.features.5.2.block.3': ConvNormActivation(
  (0): Conv2d(672, 112, kernel_size=(1, 1), stride=(1, 1), bias=False)
  (1): BatchNorm2d(112, eps=1e-05, momentum=0.1, affine=True, track_running_stats=True)
), 'cnn1.features.5.2.block.3.0': Conv2d(672, 112, kernel_size=(1, 1), stride=(1, 1), bias=False), 'cnn1.features.5.2.block.3.1': BatchNorm2d(112, eps=1e-05, momentum=0.1, affine=True, track_running_stats=True), 'cnn1.features.5.2.stochastic_depth': StochasticDepth(p=0.12173913043478261, mode=row), 'cnn1.features.5.3': MBConv(
  (block): Sequential(
    (0): ConvNormActivation(
      (0): Conv2d(112, 672, kernel_size=(1, 1), stride=(1, 1), bias=False)
      (1): BatchNorm2d(672, eps=1e-05, momentum=0.1, affine=True, track_running_stats=True)
      (2): SiLU(inplace=True)
    )
    (1): ConvNormActivation(
      (0): Conv2d(672, 672, kernel_size=(5, 5), stride=(1, 1), padding=(2, 2), groups=672, bias=False)
      (1): BatchNorm2d(672, eps=1e-05, momentum=0.1, affine=True, track_running_stats=True)
      (2): SiLU(inplace=True)
    )
    (2): SqueezeExcitation(
      (avgpool): AdaptiveAvgPool2d(output_size=1)
      (fc1): Conv2d(672, 28, kernel_size=(1, 1), stride=(1, 1))
      (fc2): Conv2d(28, 672, kernel_size=(1, 1), stride=(1, 1))
      (activation): SiLU(inplace=True)
      (scale_activation): Sigmoid()
    )
    (3): ConvNormActivation(
      (0): Conv2d(672, 112, kernel_size=(1, 1), stride=(1, 1), bias=False)
      (1): BatchNorm2d(112, eps=1e-05, momentum=0.1, affine=True, track_running_stats=True)
    )
  )
  (stochastic_depth): StochasticDepth(p=0.13043478260869565, mode=row)
), 'cnn1.features.5.3.block': Sequential(
  (0): ConvNormActivation(
    (0): Conv2d(112, 672, kernel_size=(1, 1), stride=(1, 1), bias=False)
    (1): BatchNorm2d(672, eps=1e-05, momentum=0.1, affine=True, track_running_stats=True)
    (2): SiLU(inplace=True)
  )
  (1): ConvNormActivation(
    (0): Conv2d(672, 672, kernel_size=(5, 5), stride=(1, 1), padding=(2, 2), groups=672, bias=False)
    (1): BatchNorm2d(672, eps=1e-05, momentum=0.1, affine=True, track_running_stats=True)
    (2): SiLU(inplace=True)
  )
  (2): SqueezeExcitation(
    (avgpool): AdaptiveAvgPool2d(output_size=1)
    (fc1): Conv2d(672, 28, kernel_size=(1, 1), stride=(1, 1))
    (fc2): Conv2d(28, 672, kernel_size=(1, 1), stride=(1, 1))
    (activation): SiLU(inplace=True)
    (scale_activation): Sigmoid()
  )
  (3): ConvNormActivation(
    (0): Conv2d(672, 112, kernel_size=(1, 1), stride=(1, 1), bias=False)
    (1): BatchNorm2d(112, eps=1e-05, momentum=0.1, affine=True, track_running_stats=True)
  )
), 'cnn1.features.5.3.block.0': ConvNormActivation(
  (0): Conv2d(112, 672, kernel_size=(1, 1), stride=(1, 1), bias=False)
  (1): BatchNorm2d(672, eps=1e-05, momentum=0.1, affine=True, track_running_stats=True)
  (2): SiLU(inplace=True)
), 'cnn1.features.5.3.block.0.0': Conv2d(112, 672, kernel_size=(1, 1), stride=(1, 1), bias=False), 'cnn1.features.5.3.block.0.1': BatchNorm2d(672, eps=1e-05, momentum=0.1, affine=True, track_running_stats=True), 'cnn1.features.5.3.block.0.2': SiLU(inplace=True), 'cnn1.features.5.3.block.1': ConvNormActivation(
  (0): Conv2d(672, 672, kernel_size=(5, 5), stride=(1, 1), padding=(2, 2), groups=672, bias=False)
  (1): BatchNorm2d(672, eps=1e-05, momentum=0.1, affine=True, track_running_stats=True)
  (2): SiLU(inplace=True)
), 'cnn1.features.5.3.block.1.0': Conv2d(672, 672, kernel_size=(5, 5), stride=(1, 1), padding=(2, 2), groups=672, bias=False), 'cnn1.features.5.3.block.1.1': BatchNorm2d(672, eps=1e-05, momentum=0.1, affine=True, track_running_stats=True), 'cnn1.features.5.3.block.1.2': SiLU(inplace=True), 'cnn1.features.5.3.block.2': SqueezeExcitation(
  (avgpool): AdaptiveAvgPool2d(output_size=1)
  (fc1): Conv2d(672, 28, kernel_size=(1, 1), stride=(1, 1))
  (fc2): Conv2d(28, 672, kernel_size=(1, 1), stride=(1, 1))
  (activation): SiLU(inplace=True)
  (scale_activation): Sigmoid()
), 'cnn1.features.5.3.block.2.avgpool': AdaptiveAvgPool2d(output_size=1), 'cnn1.features.5.3.block.2.fc1': Conv2d(672, 28, kernel_size=(1, 1), stride=(1, 1)), 'cnn1.features.5.3.block.2.fc2': Conv2d(28, 672, kernel_size=(1, 1), stride=(1, 1)), 'cnn1.features.5.3.block.2.activation': SiLU(inplace=True), 'cnn1.features.5.3.block.2.scale_activation': Sigmoid(), 'cnn1.features.5.3.block.3': ConvNormActivation(
  (0): Conv2d(672, 112, kernel_size=(1, 1), stride=(1, 1), bias=False)
  (1): BatchNorm2d(112, eps=1e-05, momentum=0.1, affine=True, track_running_stats=True)
), 'cnn1.features.5.3.block.3.0': Conv2d(672, 112, kernel_size=(1, 1), stride=(1, 1), bias=False), 'cnn1.features.5.3.block.3.1': BatchNorm2d(112, eps=1e-05, momentum=0.1, affine=True, track_running_stats=True), 'cnn1.features.5.3.stochastic_depth': StochasticDepth(p=0.13043478260869565, mode=row), 'cnn1.features.6': Sequential(
  (0): MBConv(
    (block): Sequential(
      (0): ConvNormActivation(
        (0): Conv2d(112, 672, kernel_size=(1, 1), stride=(1, 1), bias=False)
        (1): BatchNorm2d(672, eps=1e-05, momentum=0.1, affine=True, track_running_stats=True)
        (2): SiLU(inplace=True)
      )
      (1): ConvNormActivation(
        (0): Conv2d(672, 672, kernel_size=(5, 5), stride=(2, 2), padding=(2, 2), groups=672, bias=False)
        (1): BatchNorm2d(672, eps=1e-05, momentum=0.1, affine=True, track_running_stats=True)
        (2): SiLU(inplace=True)
      )
      (2): SqueezeExcitation(
        (avgpool): AdaptiveAvgPool2d(output_size=1)
        (fc1): Conv2d(672, 28, kernel_size=(1, 1), stride=(1, 1))
        (fc2): Conv2d(28, 672, kernel_size=(1, 1), stride=(1, 1))
        (activation): SiLU(inplace=True)
        (scale_activation): Sigmoid()
      )
      (3): ConvNormActivation(
        (0): Conv2d(672, 192, kernel_size=(1, 1), stride=(1, 1), bias=False)
        (1): BatchNorm2d(192, eps=1e-05, momentum=0.1, affine=True, track_running_stats=True)
      )
    )
    (stochastic_depth): StochasticDepth(p=0.1391304347826087, mode=row)
  )
  (1): MBConv(
    (block): Sequential(
      (0): ConvNormActivation(
        (0): Conv2d(192, 1152, kernel_size=(1, 1), stride=(1, 1), bias=False)
        (1): BatchNorm2d(1152, eps=1e-05, momentum=0.1, affine=True, track_running_stats=True)
        (2): SiLU(inplace=True)
      )
      (1): ConvNormActivation(
        (0): Conv2d(1152, 1152, kernel_size=(5, 5), stride=(1, 1), padding=(2, 2), groups=1152, bias=False)
        (1): BatchNorm2d(1152, eps=1e-05, momentum=0.1, affine=True, track_running_stats=True)
        (2): SiLU(inplace=True)
      )
      (2): SqueezeExcitation(
        (avgpool): AdaptiveAvgPool2d(output_size=1)
        (fc1): Conv2d(1152, 48, kernel_size=(1, 1), stride=(1, 1))
        (fc2): Conv2d(48, 1152, kernel_size=(1, 1), stride=(1, 1))
        (activation): SiLU(inplace=True)
        (scale_activation): Sigmoid()
      )
      (3): ConvNormActivation(
        (0): Conv2d(1152, 192, kernel_size=(1, 1), stride=(1, 1), bias=False)
        (1): BatchNorm2d(192, eps=1e-05, momentum=0.1, affine=True, track_running_stats=True)
      )
    )
    (stochastic_depth): StochasticDepth(p=0.14782608695652175, mode=row)
  )
  (2): MBConv(
    (block): Sequential(
      (0): ConvNormActivation(
        (0): Conv2d(192, 1152, kernel_size=(1, 1), stride=(1, 1), bias=False)
        (1): BatchNorm2d(1152, eps=1e-05, momentum=0.1, affine=True, track_running_stats=True)
        (2): SiLU(inplace=True)
      )
      (1): ConvNormActivation(
        (0): Conv2d(1152, 1152, kernel_size=(5, 5), stride=(1, 1), padding=(2, 2), groups=1152, bias=False)
        (1): BatchNorm2d(1152, eps=1e-05, momentum=0.1, affine=True, track_running_stats=True)
        (2): SiLU(inplace=True)
      )
      (2): SqueezeExcitation(
        (avgpool): AdaptiveAvgPool2d(output_size=1)
        (fc1): Conv2d(1152, 48, kernel_size=(1, 1), stride=(1, 1))
        (fc2): Conv2d(48, 1152, kernel_size=(1, 1), stride=(1, 1))
        (activation): SiLU(inplace=True)
        (scale_activation): Sigmoid()
      )
      (3): ConvNormActivation(
        (0): Conv2d(1152, 192, kernel_size=(1, 1), stride=(1, 1), bias=False)
        (1): BatchNorm2d(192, eps=1e-05, momentum=0.1, affine=True, track_running_stats=True)
      )
    )
    (stochastic_depth): StochasticDepth(p=0.1565217391304348, mode=row)
  )
  (3): MBConv(
    (block): Sequential(
      (0): ConvNormActivation(
        (0): Conv2d(192, 1152, kernel_size=(1, 1), stride=(1, 1), bias=False)
        (1): BatchNorm2d(1152, eps=1e-05, momentum=0.1, affine=True, track_running_stats=True)
        (2): SiLU(inplace=True)
      )
      (1): ConvNormActivation(
        (0): Conv2d(1152, 1152, kernel_size=(5, 5), stride=(1, 1), padding=(2, 2), groups=1152, bias=False)
        (1): BatchNorm2d(1152, eps=1e-05, momentum=0.1, affine=True, track_running_stats=True)
        (2): SiLU(inplace=True)
      )
      (2): SqueezeExcitation(
        (avgpool): AdaptiveAvgPool2d(output_size=1)
        (fc1): Conv2d(1152, 48, kernel_size=(1, 1), stride=(1, 1))
        (fc2): Conv2d(48, 1152, kernel_size=(1, 1), stride=(1, 1))
        (activation): SiLU(inplace=True)
        (scale_activation): Sigmoid()
      )
      (3): ConvNormActivation(
        (0): Conv2d(1152, 192, kernel_size=(1, 1), stride=(1, 1), bias=False)
        (1): BatchNorm2d(192, eps=1e-05, momentum=0.1, affine=True, track_running_stats=True)
      )
    )
    (stochastic_depth): StochasticDepth(p=0.16521739130434784, mode=row)
  )
  (4): MBConv(
    (block): Sequential(
      (0): ConvNormActivation(
        (0): Conv2d(192, 1152, kernel_size=(1, 1), stride=(1, 1), bias=False)
        (1): BatchNorm2d(1152, eps=1e-05, momentum=0.1, affine=True, track_running_stats=True)
        (2): SiLU(inplace=True)
      )
      (1): ConvNormActivation(
        (0): Conv2d(1152, 1152, kernel_size=(5, 5), stride=(1, 1), padding=(2, 2), groups=1152, bias=False)
        (1): BatchNorm2d(1152, eps=1e-05, momentum=0.1, affine=True, track_running_stats=True)
        (2): SiLU(inplace=True)
      )
      (2): SqueezeExcitation(
        (avgpool): AdaptiveAvgPool2d(output_size=1)
        (fc1): Conv2d(1152, 48, kernel_size=(1, 1), stride=(1, 1))
        (fc2): Conv2d(48, 1152, kernel_size=(1, 1), stride=(1, 1))
        (activation): SiLU(inplace=True)
        (scale_activation): Sigmoid()
      )
      (3): ConvNormActivation(
        (0): Conv2d(1152, 192, kernel_size=(1, 1), stride=(1, 1), bias=False)
        (1): BatchNorm2d(192, eps=1e-05, momentum=0.1, affine=True, track_running_stats=True)
      )
    )
    (stochastic_depth): StochasticDepth(p=0.17391304347826086, mode=row)
  )
), 'cnn1.features.6.0': MBConv(
  (block): Sequential(
    (0): ConvNormActivation(
      (0): Conv2d(112, 672, kernel_size=(1, 1), stride=(1, 1), bias=False)
      (1): BatchNorm2d(672, eps=1e-05, momentum=0.1, affine=True, track_running_stats=True)
      (2): SiLU(inplace=True)
    )
    (1): ConvNormActivation(
      (0): Conv2d(672, 672, kernel_size=(5, 5), stride=(2, 2), padding=(2, 2), groups=672, bias=False)
      (1): BatchNorm2d(672, eps=1e-05, momentum=0.1, affine=True, track_running_stats=True)
      (2): SiLU(inplace=True)
    )
    (2): SqueezeExcitation(
      (avgpool): AdaptiveAvgPool2d(output_size=1)
      (fc1): Conv2d(672, 28, kernel_size=(1, 1), stride=(1, 1))
      (fc2): Conv2d(28, 672, kernel_size=(1, 1), stride=(1, 1))
      (activation): SiLU(inplace=True)
      (scale_activation): Sigmoid()
    )
    (3): ConvNormActivation(
      (0): Conv2d(672, 192, kernel_size=(1, 1), stride=(1, 1), bias=False)
      (1): BatchNorm2d(192, eps=1e-05, momentum=0.1, affine=True, track_running_stats=True)
    )
  )
  (stochastic_depth): StochasticDepth(p=0.1391304347826087, mode=row)
), 'cnn1.features.6.0.block': Sequential(
  (0): ConvNormActivation(
    (0): Conv2d(112, 672, kernel_size=(1, 1), stride=(1, 1), bias=False)
    (1): BatchNorm2d(672, eps=1e-05, momentum=0.1, affine=True, track_running_stats=True)
    (2): SiLU(inplace=True)
  )
  (1): ConvNormActivation(
    (0): Conv2d(672, 672, kernel_size=(5, 5), stride=(2, 2), padding=(2, 2), groups=672, bias=False)
    (1): BatchNorm2d(672, eps=1e-05, momentum=0.1, affine=True, track_running_stats=True)
    (2): SiLU(inplace=True)
  )
  (2): SqueezeExcitation(
    (avgpool): AdaptiveAvgPool2d(output_size=1)
    (fc1): Conv2d(672, 28, kernel_size=(1, 1), stride=(1, 1))
    (fc2): Conv2d(28, 672, kernel_size=(1, 1), stride=(1, 1))
    (activation): SiLU(inplace=True)
    (scale_activation): Sigmoid()
  )
  (3): ConvNormActivation(
    (0): Conv2d(672, 192, kernel_size=(1, 1), stride=(1, 1), bias=False)
    (1): BatchNorm2d(192, eps=1e-05, momentum=0.1, affine=True, track_running_stats=True)
  )
), 'cnn1.features.6.0.block.0': ConvNormActivation(
  (0): Conv2d(112, 672, kernel_size=(1, 1), stride=(1, 1), bias=False)
  (1): BatchNorm2d(672, eps=1e-05, momentum=0.1, affine=True, track_running_stats=True)
  (2): SiLU(inplace=True)
), 'cnn1.features.6.0.block.0.0': Conv2d(112, 672, kernel_size=(1, 1), stride=(1, 1), bias=False), 'cnn1.features.6.0.block.0.1': BatchNorm2d(672, eps=1e-05, momentum=0.1, affine=True, track_running_stats=True), 'cnn1.features.6.0.block.0.2': SiLU(inplace=True), 'cnn1.features.6.0.block.1': ConvNormActivation(
  (0): Conv2d(672, 672, kernel_size=(5, 5), stride=(2, 2), padding=(2, 2), groups=672, bias=False)
  (1): BatchNorm2d(672, eps=1e-05, momentum=0.1, affine=True, track_running_stats=True)
  (2): SiLU(inplace=True)
), 'cnn1.features.6.0.block.1.0': Conv2d(672, 672, kernel_size=(5, 5), stride=(2, 2), padding=(2, 2), groups=672, bias=False), 'cnn1.features.6.0.block.1.1': BatchNorm2d(672, eps=1e-05, momentum=0.1, affine=True, track_running_stats=True), 'cnn1.features.6.0.block.1.2': SiLU(inplace=True), 'cnn1.features.6.0.block.2': SqueezeExcitation(
  (avgpool): AdaptiveAvgPool2d(output_size=1)
  (fc1): Conv2d(672, 28, kernel_size=(1, 1), stride=(1, 1))
  (fc2): Conv2d(28, 672, kernel_size=(1, 1), stride=(1, 1))
  (activation): SiLU(inplace=True)
  (scale_activation): Sigmoid()
), 'cnn1.features.6.0.block.2.avgpool': AdaptiveAvgPool2d(output_size=1), 'cnn1.features.6.0.block.2.fc1': Conv2d(672, 28, kernel_size=(1, 1), stride=(1, 1)), 'cnn1.features.6.0.block.2.fc2': Conv2d(28, 672, kernel_size=(1, 1), stride=(1, 1)), 'cnn1.features.6.0.block.2.activation': SiLU(inplace=True), 'cnn1.features.6.0.block.2.scale_activation': Sigmoid(), 'cnn1.features.6.0.block.3': ConvNormActivation(
  (0): Conv2d(672, 192, kernel_size=(1, 1), stride=(1, 1), bias=False)
  (1): BatchNorm2d(192, eps=1e-05, momentum=0.1, affine=True, track_running_stats=True)
), 'cnn1.features.6.0.block.3.0': Conv2d(672, 192, kernel_size=(1, 1), stride=(1, 1), bias=False), 'cnn1.features.6.0.block.3.1': BatchNorm2d(192, eps=1e-05, momentum=0.1, affine=True, track_running_stats=True), 'cnn1.features.6.0.stochastic_depth': StochasticDepth(p=0.1391304347826087, mode=row), 'cnn1.features.6.1': MBConv(
  (block): Sequential(
    (0): ConvNormActivation(
      (0): Conv2d(192, 1152, kernel_size=(1, 1), stride=(1, 1), bias=False)
      (1): BatchNorm2d(1152, eps=1e-05, momentum=0.1, affine=True, track_running_stats=True)
      (2): SiLU(inplace=True)
    )
    (1): ConvNormActivation(
      (0): Conv2d(1152, 1152, kernel_size=(5, 5), stride=(1, 1), padding=(2, 2), groups=1152, bias=False)
      (1): BatchNorm2d(1152, eps=1e-05, momentum=0.1, affine=True, track_running_stats=True)
      (2): SiLU(inplace=True)
    )
    (2): SqueezeExcitation(
      (avgpool): AdaptiveAvgPool2d(output_size=1)
      (fc1): Conv2d(1152, 48, kernel_size=(1, 1), stride=(1, 1))
      (fc2): Conv2d(48, 1152, kernel_size=(1, 1), stride=(1, 1))
      (activation): SiLU(inplace=True)
      (scale_activation): Sigmoid()
    )
    (3): ConvNormActivation(
      (0): Conv2d(1152, 192, kernel_size=(1, 1), stride=(1, 1), bias=False)
      (1): BatchNorm2d(192, eps=1e-05, momentum=0.1, affine=True, track_running_stats=True)
    )
  )
  (stochastic_depth): StochasticDepth(p=0.14782608695652175, mode=row)
), 'cnn1.features.6.1.block': Sequential(
  (0): ConvNormActivation(
    (0): Conv2d(192, 1152, kernel_size=(1, 1), stride=(1, 1), bias=False)
    (1): BatchNorm2d(1152, eps=1e-05, momentum=0.1, affine=True, track_running_stats=True)
    (2): SiLU(inplace=True)
  )
  (1): ConvNormActivation(
    (0): Conv2d(1152, 1152, kernel_size=(5, 5), stride=(1, 1), padding=(2, 2), groups=1152, bias=False)
    (1): BatchNorm2d(1152, eps=1e-05, momentum=0.1, affine=True, track_running_stats=True)
    (2): SiLU(inplace=True)
  )
  (2): SqueezeExcitation(
    (avgpool): AdaptiveAvgPool2d(output_size=1)
    (fc1): Conv2d(1152, 48, kernel_size=(1, 1), stride=(1, 1))
    (fc2): Conv2d(48, 1152, kernel_size=(1, 1), stride=(1, 1))
    (activation): SiLU(inplace=True)
    (scale_activation): Sigmoid()
  )
  (3): ConvNormActivation(
    (0): Conv2d(1152, 192, kernel_size=(1, 1), stride=(1, 1), bias=False)
    (1): BatchNorm2d(192, eps=1e-05, momentum=0.1, affine=True, track_running_stats=True)
  )
), 'cnn1.features.6.1.block.0': ConvNormActivation(
  (0): Conv2d(192, 1152, kernel_size=(1, 1), stride=(1, 1), bias=False)
  (1): BatchNorm2d(1152, eps=1e-05, momentum=0.1, affine=True, track_running_stats=True)
  (2): SiLU(inplace=True)
), 'cnn1.features.6.1.block.0.0': Conv2d(192, 1152, kernel_size=(1, 1), stride=(1, 1), bias=False), 'cnn1.features.6.1.block.0.1': BatchNorm2d(1152, eps=1e-05, momentum=0.1, affine=True, track_running_stats=True), 'cnn1.features.6.1.block.0.2': SiLU(inplace=True), 'cnn1.features.6.1.block.1': ConvNormActivation(
  (0): Conv2d(1152, 1152, kernel_size=(5, 5), stride=(1, 1), padding=(2, 2), groups=1152, bias=False)
  (1): BatchNorm2d(1152, eps=1e-05, momentum=0.1, affine=True, track_running_stats=True)
  (2): SiLU(inplace=True)
), 'cnn1.features.6.1.block.1.0': Conv2d(1152, 1152, kernel_size=(5, 5), stride=(1, 1), padding=(2, 2), groups=1152, bias=False), 'cnn1.features.6.1.block.1.1': BatchNorm2d(1152, eps=1e-05, momentum=0.1, affine=True, track_running_stats=True), 'cnn1.features.6.1.block.1.2': SiLU(inplace=True), 'cnn1.features.6.1.block.2': SqueezeExcitation(
  (avgpool): AdaptiveAvgPool2d(output_size=1)
  (fc1): Conv2d(1152, 48, kernel_size=(1, 1), stride=(1, 1))
  (fc2): Conv2d(48, 1152, kernel_size=(1, 1), stride=(1, 1))
  (activation): SiLU(inplace=True)
  (scale_activation): Sigmoid()
), 'cnn1.features.6.1.block.2.avgpool': AdaptiveAvgPool2d(output_size=1), 'cnn1.features.6.1.block.2.fc1': Conv2d(1152, 48, kernel_size=(1, 1), stride=(1, 1)), 'cnn1.features.6.1.block.2.fc2': Conv2d(48, 1152, kernel_size=(1, 1), stride=(1, 1)), 'cnn1.features.6.1.block.2.activation': SiLU(inplace=True), 'cnn1.features.6.1.block.2.scale_activation': Sigmoid(), 'cnn1.features.6.1.block.3': ConvNormActivation(
  (0): Conv2d(1152, 192, kernel_size=(1, 1), stride=(1, 1), bias=False)
  (1): BatchNorm2d(192, eps=1e-05, momentum=0.1, affine=True, track_running_stats=True)
), 'cnn1.features.6.1.block.3.0': Conv2d(1152, 192, kernel_size=(1, 1), stride=(1, 1), bias=False), 'cnn1.features.6.1.block.3.1': BatchNorm2d(192, eps=1e-05, momentum=0.1, affine=True, track_running_stats=True), 'cnn1.features.6.1.stochastic_depth': StochasticDepth(p=0.14782608695652175, mode=row), 'cnn1.features.6.2': MBConv(
  (block): Sequential(
    (0): ConvNormActivation(
      (0): Conv2d(192, 1152, kernel_size=(1, 1), stride=(1, 1), bias=False)
      (1): BatchNorm2d(1152, eps=1e-05, momentum=0.1, affine=True, track_running_stats=True)
      (2): SiLU(inplace=True)
    )
    (1): ConvNormActivation(
      (0): Conv2d(1152, 1152, kernel_size=(5, 5), stride=(1, 1), padding=(2, 2), groups=1152, bias=False)
      (1): BatchNorm2d(1152, eps=1e-05, momentum=0.1, affine=True, track_running_stats=True)
      (2): SiLU(inplace=True)
    )
    (2): SqueezeExcitation(
      (avgpool): AdaptiveAvgPool2d(output_size=1)
      (fc1): Conv2d(1152, 48, kernel_size=(1, 1), stride=(1, 1))
      (fc2): Conv2d(48, 1152, kernel_size=(1, 1), stride=(1, 1))
      (activation): SiLU(inplace=True)
      (scale_activation): Sigmoid()
    )
    (3): ConvNormActivation(
      (0): Conv2d(1152, 192, kernel_size=(1, 1), stride=(1, 1), bias=False)
      (1): BatchNorm2d(192, eps=1e-05, momentum=0.1, affine=True, track_running_stats=True)
    )
  )
  (stochastic_depth): StochasticDepth(p=0.1565217391304348, mode=row)
), 'cnn1.features.6.2.block': Sequential(
  (0): ConvNormActivation(
    (0): Conv2d(192, 1152, kernel_size=(1, 1), stride=(1, 1), bias=False)
    (1): BatchNorm2d(1152, eps=1e-05, momentum=0.1, affine=True, track_running_stats=True)
    (2): SiLU(inplace=True)
  )
  (1): ConvNormActivation(
    (0): Conv2d(1152, 1152, kernel_size=(5, 5), stride=(1, 1), padding=(2, 2), groups=1152, bias=False)
    (1): BatchNorm2d(1152, eps=1e-05, momentum=0.1, affine=True, track_running_stats=True)
    (2): SiLU(inplace=True)
  )
  (2): SqueezeExcitation(
    (avgpool): AdaptiveAvgPool2d(output_size=1)
    (fc1): Conv2d(1152, 48, kernel_size=(1, 1), stride=(1, 1))
    (fc2): Conv2d(48, 1152, kernel_size=(1, 1), stride=(1, 1))
    (activation): SiLU(inplace=True)
    (scale_activation): Sigmoid()
  )
  (3): ConvNormActivation(
    (0): Conv2d(1152, 192, kernel_size=(1, 1), stride=(1, 1), bias=False)
    (1): BatchNorm2d(192, eps=1e-05, momentum=0.1, affine=True, track_running_stats=True)
  )
), 'cnn1.features.6.2.block.0': ConvNormActivation(
  (0): Conv2d(192, 1152, kernel_size=(1, 1), stride=(1, 1), bias=False)
  (1): BatchNorm2d(1152, eps=1e-05, momentum=0.1, affine=True, track_running_stats=True)
  (2): SiLU(inplace=True)
), 'cnn1.features.6.2.block.0.0': Conv2d(192, 1152, kernel_size=(1, 1), stride=(1, 1), bias=False), 'cnn1.features.6.2.block.0.1': BatchNorm2d(1152, eps=1e-05, momentum=0.1, affine=True, track_running_stats=True), 'cnn1.features.6.2.block.0.2': SiLU(inplace=True), 'cnn1.features.6.2.block.1': ConvNormActivation(
  (0): Conv2d(1152, 1152, kernel_size=(5, 5), stride=(1, 1), padding=(2, 2), groups=1152, bias=False)
  (1): BatchNorm2d(1152, eps=1e-05, momentum=0.1, affine=True, track_running_stats=True)
  (2): SiLU(inplace=True)
), 'cnn1.features.6.2.block.1.0': Conv2d(1152, 1152, kernel_size=(5, 5), stride=(1, 1), padding=(2, 2), groups=1152, bias=False), 'cnn1.features.6.2.block.1.1': BatchNorm2d(1152, eps=1e-05, momentum=0.1, affine=True, track_running_stats=True), 'cnn1.features.6.2.block.1.2': SiLU(inplace=True), 'cnn1.features.6.2.block.2': SqueezeExcitation(
  (avgpool): AdaptiveAvgPool2d(output_size=1)
  (fc1): Conv2d(1152, 48, kernel_size=(1, 1), stride=(1, 1))
  (fc2): Conv2d(48, 1152, kernel_size=(1, 1), stride=(1, 1))
  (activation): SiLU(inplace=True)
  (scale_activation): Sigmoid()
), 'cnn1.features.6.2.block.2.avgpool': AdaptiveAvgPool2d(output_size=1), 'cnn1.features.6.2.block.2.fc1': Conv2d(1152, 48, kernel_size=(1, 1), stride=(1, 1)), 'cnn1.features.6.2.block.2.fc2': Conv2d(48, 1152, kernel_size=(1, 1), stride=(1, 1)), 'cnn1.features.6.2.block.2.activation': SiLU(inplace=True), 'cnn1.features.6.2.block.2.scale_activation': Sigmoid(), 'cnn1.features.6.2.block.3': ConvNormActivation(
  (0): Conv2d(1152, 192, kernel_size=(1, 1), stride=(1, 1), bias=False)
  (1): BatchNorm2d(192, eps=1e-05, momentum=0.1, affine=True, track_running_stats=True)
), 'cnn1.features.6.2.block.3.0': Conv2d(1152, 192, kernel_size=(1, 1), stride=(1, 1), bias=False), 'cnn1.features.6.2.block.3.1': BatchNorm2d(192, eps=1e-05, momentum=0.1, affine=True, track_running_stats=True), 'cnn1.features.6.2.stochastic_depth': StochasticDepth(p=0.1565217391304348, mode=row), 'cnn1.features.6.3': MBConv(
  (block): Sequential(
    (0): ConvNormActivation(
      (0): Conv2d(192, 1152, kernel_size=(1, 1), stride=(1, 1), bias=False)
      (1): BatchNorm2d(1152, eps=1e-05, momentum=0.1, affine=True, track_running_stats=True)
      (2): SiLU(inplace=True)
    )
    (1): ConvNormActivation(
      (0): Conv2d(1152, 1152, kernel_size=(5, 5), stride=(1, 1), padding=(2, 2), groups=1152, bias=False)
      (1): BatchNorm2d(1152, eps=1e-05, momentum=0.1, affine=True, track_running_stats=True)
      (2): SiLU(inplace=True)
    )
    (2): SqueezeExcitation(
      (avgpool): AdaptiveAvgPool2d(output_size=1)
      (fc1): Conv2d(1152, 48, kernel_size=(1, 1), stride=(1, 1))
      (fc2): Conv2d(48, 1152, kernel_size=(1, 1), stride=(1, 1))
      (activation): SiLU(inplace=True)
      (scale_activation): Sigmoid()
    )
    (3): ConvNormActivation(
      (0): Conv2d(1152, 192, kernel_size=(1, 1), stride=(1, 1), bias=False)
      (1): BatchNorm2d(192, eps=1e-05, momentum=0.1, affine=True, track_running_stats=True)
    )
  )
  (stochastic_depth): StochasticDepth(p=0.16521739130434784, mode=row)
), 'cnn1.features.6.3.block': Sequential(
  (0): ConvNormActivation(
    (0): Conv2d(192, 1152, kernel_size=(1, 1), stride=(1, 1), bias=False)
    (1): BatchNorm2d(1152, eps=1e-05, momentum=0.1, affine=True, track_running_stats=True)
    (2): SiLU(inplace=True)
  )
  (1): ConvNormActivation(
    (0): Conv2d(1152, 1152, kernel_size=(5, 5), stride=(1, 1), padding=(2, 2), groups=1152, bias=False)
    (1): BatchNorm2d(1152, eps=1e-05, momentum=0.1, affine=True, track_running_stats=True)
    (2): SiLU(inplace=True)
  )
  (2): SqueezeExcitation(
    (avgpool): AdaptiveAvgPool2d(output_size=1)
    (fc1): Conv2d(1152, 48, kernel_size=(1, 1), stride=(1, 1))
    (fc2): Conv2d(48, 1152, kernel_size=(1, 1), stride=(1, 1))
    (activation): SiLU(inplace=True)
    (scale_activation): Sigmoid()
  )
  (3): ConvNormActivation(
    (0): Conv2d(1152, 192, kernel_size=(1, 1), stride=(1, 1), bias=False)
    (1): BatchNorm2d(192, eps=1e-05, momentum=0.1, affine=True, track_running_stats=True)
  )
), 'cnn1.features.6.3.block.0': ConvNormActivation(
  (0): Conv2d(192, 1152, kernel_size=(1, 1), stride=(1, 1), bias=False)
  (1): BatchNorm2d(1152, eps=1e-05, momentum=0.1, affine=True, track_running_stats=True)
  (2): SiLU(inplace=True)
), 'cnn1.features.6.3.block.0.0': Conv2d(192, 1152, kernel_size=(1, 1), stride=(1, 1), bias=False), 'cnn1.features.6.3.block.0.1': BatchNorm2d(1152, eps=1e-05, momentum=0.1, affine=True, track_running_stats=True), 'cnn1.features.6.3.block.0.2': SiLU(inplace=True), 'cnn1.features.6.3.block.1': ConvNormActivation(
  (0): Conv2d(1152, 1152, kernel_size=(5, 5), stride=(1, 1), padding=(2, 2), groups=1152, bias=False)
  (1): BatchNorm2d(1152, eps=1e-05, momentum=0.1, affine=True, track_running_stats=True)
  (2): SiLU(inplace=True)
), 'cnn1.features.6.3.block.1.0': Conv2d(1152, 1152, kernel_size=(5, 5), stride=(1, 1), padding=(2, 2), groups=1152, bias=False), 'cnn1.features.6.3.block.1.1': BatchNorm2d(1152, eps=1e-05, momentum=0.1, affine=True, track_running_stats=True), 'cnn1.features.6.3.block.1.2': SiLU(inplace=True), 'cnn1.features.6.3.block.2': SqueezeExcitation(
  (avgpool): AdaptiveAvgPool2d(output_size=1)
  (fc1): Conv2d(1152, 48, kernel_size=(1, 1), stride=(1, 1))
  (fc2): Conv2d(48, 1152, kernel_size=(1, 1), stride=(1, 1))
  (activation): SiLU(inplace=True)
  (scale_activation): Sigmoid()
), 'cnn1.features.6.3.block.2.avgpool': AdaptiveAvgPool2d(output_size=1), 'cnn1.features.6.3.block.2.fc1': Conv2d(1152, 48, kernel_size=(1, 1), stride=(1, 1)), 'cnn1.features.6.3.block.2.fc2': Conv2d(48, 1152, kernel_size=(1, 1), stride=(1, 1)), 'cnn1.features.6.3.block.2.activation': SiLU(inplace=True), 'cnn1.features.6.3.block.2.scale_activation': Sigmoid(), 'cnn1.features.6.3.block.3': ConvNormActivation(
  (0): Conv2d(1152, 192, kernel_size=(1, 1), stride=(1, 1), bias=False)
  (1): BatchNorm2d(192, eps=1e-05, momentum=0.1, affine=True, track_running_stats=True)
), 'cnn1.features.6.3.block.3.0': Conv2d(1152, 192, kernel_size=(1, 1), stride=(1, 1), bias=False), 'cnn1.features.6.3.block.3.1': BatchNorm2d(192, eps=1e-05, momentum=0.1, affine=True, track_running_stats=True), 'cnn1.features.6.3.stochastic_depth': StochasticDepth(p=0.16521739130434784, mode=row), 'cnn1.features.6.4': MBConv(
  (block): Sequential(
    (0): ConvNormActivation(
      (0): Conv2d(192, 1152, kernel_size=(1, 1), stride=(1, 1), bias=False)
      (1): BatchNorm2d(1152, eps=1e-05, momentum=0.1, affine=True, track_running_stats=True)
      (2): SiLU(inplace=True)
    )
    (1): ConvNormActivation(
      (0): Conv2d(1152, 1152, kernel_size=(5, 5), stride=(1, 1), padding=(2, 2), groups=1152, bias=False)
      (1): BatchNorm2d(1152, eps=1e-05, momentum=0.1, affine=True, track_running_stats=True)
      (2): SiLU(inplace=True)
    )
    (2): SqueezeExcitation(
      (avgpool): AdaptiveAvgPool2d(output_size=1)
      (fc1): Conv2d(1152, 48, kernel_size=(1, 1), stride=(1, 1))
      (fc2): Conv2d(48, 1152, kernel_size=(1, 1), stride=(1, 1))
      (activation): SiLU(inplace=True)
      (scale_activation): Sigmoid()
    )
    (3): ConvNormActivation(
      (0): Conv2d(1152, 192, kernel_size=(1, 1), stride=(1, 1), bias=False)
      (1): BatchNorm2d(192, eps=1e-05, momentum=0.1, affine=True, track_running_stats=True)
    )
  )
  (stochastic_depth): StochasticDepth(p=0.17391304347826086, mode=row)
), 'cnn1.features.6.4.block': Sequential(
  (0): ConvNormActivation(
    (0): Conv2d(192, 1152, kernel_size=(1, 1), stride=(1, 1), bias=False)
    (1): BatchNorm2d(1152, eps=1e-05, momentum=0.1, affine=True, track_running_stats=True)
    (2): SiLU(inplace=True)
  )
  (1): ConvNormActivation(
    (0): Conv2d(1152, 1152, kernel_size=(5, 5), stride=(1, 1), padding=(2, 2), groups=1152, bias=False)
    (1): BatchNorm2d(1152, eps=1e-05, momentum=0.1, affine=True, track_running_stats=True)
    (2): SiLU(inplace=True)
  )
  (2): SqueezeExcitation(
    (avgpool): AdaptiveAvgPool2d(output_size=1)
    (fc1): Conv2d(1152, 48, kernel_size=(1, 1), stride=(1, 1))
    (fc2): Conv2d(48, 1152, kernel_size=(1, 1), stride=(1, 1))
    (activation): SiLU(inplace=True)
    (scale_activation): Sigmoid()
  )
  (3): ConvNormActivation(
    (0): Conv2d(1152, 192, kernel_size=(1, 1), stride=(1, 1), bias=False)
    (1): BatchNorm2d(192, eps=1e-05, momentum=0.1, affine=True, track_running_stats=True)
  )
), 'cnn1.features.6.4.block.0': ConvNormActivation(
  (0): Conv2d(192, 1152, kernel_size=(1, 1), stride=(1, 1), bias=False)
  (1): BatchNorm2d(1152, eps=1e-05, momentum=0.1, affine=True, track_running_stats=True)
  (2): SiLU(inplace=True)
), 'cnn1.features.6.4.block.0.0': Conv2d(192, 1152, kernel_size=(1, 1), stride=(1, 1), bias=False), 'cnn1.features.6.4.block.0.1': BatchNorm2d(1152, eps=1e-05, momentum=0.1, affine=True, track_running_stats=True), 'cnn1.features.6.4.block.0.2': SiLU(inplace=True), 'cnn1.features.6.4.block.1': ConvNormActivation(
  (0): Conv2d(1152, 1152, kernel_size=(5, 5), stride=(1, 1), padding=(2, 2), groups=1152, bias=False)
  (1): BatchNorm2d(1152, eps=1e-05, momentum=0.1, affine=True, track_running_stats=True)
  (2): SiLU(inplace=True)
), 'cnn1.features.6.4.block.1.0': Conv2d(1152, 1152, kernel_size=(5, 5), stride=(1, 1), padding=(2, 2), groups=1152, bias=False), 'cnn1.features.6.4.block.1.1': BatchNorm2d(1152, eps=1e-05, momentum=0.1, affine=True, track_running_stats=True), 'cnn1.features.6.4.block.1.2': SiLU(inplace=True), 'cnn1.features.6.4.block.2': SqueezeExcitation(
  (avgpool): AdaptiveAvgPool2d(output_size=1)
  (fc1): Conv2d(1152, 48, kernel_size=(1, 1), stride=(1, 1))
  (fc2): Conv2d(48, 1152, kernel_size=(1, 1), stride=(1, 1))
  (activation): SiLU(inplace=True)
  (scale_activation): Sigmoid()
), 'cnn1.features.6.4.block.2.avgpool': AdaptiveAvgPool2d(output_size=1), 'cnn1.features.6.4.block.2.fc1': Conv2d(1152, 48, kernel_size=(1, 1), stride=(1, 1)), 'cnn1.features.6.4.block.2.fc2': Conv2d(48, 1152, kernel_size=(1, 1), stride=(1, 1)), 'cnn1.features.6.4.block.2.activation': SiLU(inplace=True), 'cnn1.features.6.4.block.2.scale_activation': Sigmoid(), 'cnn1.features.6.4.block.3': ConvNormActivation(
  (0): Conv2d(1152, 192, kernel_size=(1, 1), stride=(1, 1), bias=False)
  (1): BatchNorm2d(192, eps=1e-05, momentum=0.1, affine=True, track_running_stats=True)
), 'cnn1.features.6.4.block.3.0': Conv2d(1152, 192, kernel_size=(1, 1), stride=(1, 1), bias=False), 'cnn1.features.6.4.block.3.1': BatchNorm2d(192, eps=1e-05, momentum=0.1, affine=True, track_running_stats=True), 'cnn1.features.6.4.stochastic_depth': StochasticDepth(p=0.17391304347826086, mode=row), 'cnn1.features.7': Sequential(
  (0): MBConv(
    (block): Sequential(
      (0): ConvNormActivation(
        (0): Conv2d(192, 1152, kernel_size=(1, 1), stride=(1, 1), bias=False)
        (1): BatchNorm2d(1152, eps=1e-05, momentum=0.1, affine=True, track_running_stats=True)
        (2): SiLU(inplace=True)
      )
      (1): ConvNormActivation(
        (0): Conv2d(1152, 1152, kernel_size=(3, 3), stride=(1, 1), padding=(1, 1), groups=1152, bias=False)
        (1): BatchNorm2d(1152, eps=1e-05, momentum=0.1, affine=True, track_running_stats=True)
        (2): SiLU(inplace=True)
      )
      (2): SqueezeExcitation(
        (avgpool): AdaptiveAvgPool2d(output_size=1)
        (fc1): Conv2d(1152, 48, kernel_size=(1, 1), stride=(1, 1))
        (fc2): Conv2d(48, 1152, kernel_size=(1, 1), stride=(1, 1))
        (activation): SiLU(inplace=True)
        (scale_activation): Sigmoid()
      )
      (3): ConvNormActivation(
        (0): Conv2d(1152, 320, kernel_size=(1, 1), stride=(1, 1), bias=False)
        (1): BatchNorm2d(320, eps=1e-05, momentum=0.1, affine=True, track_running_stats=True)
      )
    )
    (stochastic_depth): StochasticDepth(p=0.1826086956521739, mode=row)
  )
  (1): MBConv(
    (block): Sequential(
      (0): ConvNormActivation(
        (0): Conv2d(320, 1920, kernel_size=(1, 1), stride=(1, 1), bias=False)
        (1): BatchNorm2d(1920, eps=1e-05, momentum=0.1, affine=True, track_running_stats=True)
        (2): SiLU(inplace=True)
      )
      (1): ConvNormActivation(
        (0): Conv2d(1920, 1920, kernel_size=(3, 3), stride=(1, 1), padding=(1, 1), groups=1920, bias=False)
        (1): BatchNorm2d(1920, eps=1e-05, momentum=0.1, affine=True, track_running_stats=True)
        (2): SiLU(inplace=True)
      )
      (2): SqueezeExcitation(
        (avgpool): AdaptiveAvgPool2d(output_size=1)
        (fc1): Conv2d(1920, 80, kernel_size=(1, 1), stride=(1, 1))
        (fc2): Conv2d(80, 1920, kernel_size=(1, 1), stride=(1, 1))
        (activation): SiLU(inplace=True)
        (scale_activation): Sigmoid()
      )
      (3): ConvNormActivation(
        (0): Conv2d(1920, 320, kernel_size=(1, 1), stride=(1, 1), bias=False)
        (1): BatchNorm2d(320, eps=1e-05, momentum=0.1, affine=True, track_running_stats=True)
      )
    )
    (stochastic_depth): StochasticDepth(p=0.19130434782608696, mode=row)
  )
), 'cnn1.features.7.0': MBConv(
  (block): Sequential(
    (0): ConvNormActivation(
      (0): Conv2d(192, 1152, kernel_size=(1, 1), stride=(1, 1), bias=False)
      (1): BatchNorm2d(1152, eps=1e-05, momentum=0.1, affine=True, track_running_stats=True)
      (2): SiLU(inplace=True)
    )
    (1): ConvNormActivation(
      (0): Conv2d(1152, 1152, kernel_size=(3, 3), stride=(1, 1), padding=(1, 1), groups=1152, bias=False)
      (1): BatchNorm2d(1152, eps=1e-05, momentum=0.1, affine=True, track_running_stats=True)
      (2): SiLU(inplace=True)
    )
    (2): SqueezeExcitation(
      (avgpool): AdaptiveAvgPool2d(output_size=1)
      (fc1): Conv2d(1152, 48, kernel_size=(1, 1), stride=(1, 1))
      (fc2): Conv2d(48, 1152, kernel_size=(1, 1), stride=(1, 1))
      (activation): SiLU(inplace=True)
      (scale_activation): Sigmoid()
    )
    (3): ConvNormActivation(
      (0): Conv2d(1152, 320, kernel_size=(1, 1), stride=(1, 1), bias=False)
      (1): BatchNorm2d(320, eps=1e-05, momentum=0.1, affine=True, track_running_stats=True)
    )
  )
  (stochastic_depth): StochasticDepth(p=0.1826086956521739, mode=row)
), 'cnn1.features.7.0.block': Sequential(
  (0): ConvNormActivation(
    (0): Conv2d(192, 1152, kernel_size=(1, 1), stride=(1, 1), bias=False)
    (1): BatchNorm2d(1152, eps=1e-05, momentum=0.1, affine=True, track_running_stats=True)
    (2): SiLU(inplace=True)
  )
  (1): ConvNormActivation(
    (0): Conv2d(1152, 1152, kernel_size=(3, 3), stride=(1, 1), padding=(1, 1), groups=1152, bias=False)
    (1): BatchNorm2d(1152, eps=1e-05, momentum=0.1, affine=True, track_running_stats=True)
    (2): SiLU(inplace=True)
  )
  (2): SqueezeExcitation(
    (avgpool): AdaptiveAvgPool2d(output_size=1)
    (fc1): Conv2d(1152, 48, kernel_size=(1, 1), stride=(1, 1))
    (fc2): Conv2d(48, 1152, kernel_size=(1, 1), stride=(1, 1))
    (activation): SiLU(inplace=True)
    (scale_activation): Sigmoid()
  )
  (3): ConvNormActivation(
    (0): Conv2d(1152, 320, kernel_size=(1, 1), stride=(1, 1), bias=False)
    (1): BatchNorm2d(320, eps=1e-05, momentum=0.1, affine=True, track_running_stats=True)
  )
), 'cnn1.features.7.0.block.0': ConvNormActivation(
  (0): Conv2d(192, 1152, kernel_size=(1, 1), stride=(1, 1), bias=False)
  (1): BatchNorm2d(1152, eps=1e-05, momentum=0.1, affine=True, track_running_stats=True)
  (2): SiLU(inplace=True)
), 'cnn1.features.7.0.block.0.0': Conv2d(192, 1152, kernel_size=(1, 1), stride=(1, 1), bias=False), 'cnn1.features.7.0.block.0.1': BatchNorm2d(1152, eps=1e-05, momentum=0.1, affine=True, track_running_stats=True), 'cnn1.features.7.0.block.0.2': SiLU(inplace=True), 'cnn1.features.7.0.block.1': ConvNormActivation(
  (0): Conv2d(1152, 1152, kernel_size=(3, 3), stride=(1, 1), padding=(1, 1), groups=1152, bias=False)
  (1): BatchNorm2d(1152, eps=1e-05, momentum=0.1, affine=True, track_running_stats=True)
  (2): SiLU(inplace=True)
), 'cnn1.features.7.0.block.1.0': Conv2d(1152, 1152, kernel_size=(3, 3), stride=(1, 1), padding=(1, 1), groups=1152, bias=False), 'cnn1.features.7.0.block.1.1': BatchNorm2d(1152, eps=1e-05, momentum=0.1, affine=True, track_running_stats=True), 'cnn1.features.7.0.block.1.2': SiLU(inplace=True), 'cnn1.features.7.0.block.2': SqueezeExcitation(
  (avgpool): AdaptiveAvgPool2d(output_size=1)
  (fc1): Conv2d(1152, 48, kernel_size=(1, 1), stride=(1, 1))
  (fc2): Conv2d(48, 1152, kernel_size=(1, 1), stride=(1, 1))
  (activation): SiLU(inplace=True)
  (scale_activation): Sigmoid()
), 'cnn1.features.7.0.block.2.avgpool': AdaptiveAvgPool2d(output_size=1), 'cnn1.features.7.0.block.2.fc1': Conv2d(1152, 48, kernel_size=(1, 1), stride=(1, 1)), 'cnn1.features.7.0.block.2.fc2': Conv2d(48, 1152, kernel_size=(1, 1), stride=(1, 1)), 'cnn1.features.7.0.block.2.activation': SiLU(inplace=True), 'cnn1.features.7.0.block.2.scale_activation': Sigmoid(), 'cnn1.features.7.0.block.3': ConvNormActivation(
  (0): Conv2d(1152, 320, kernel_size=(1, 1), stride=(1, 1), bias=False)
  (1): BatchNorm2d(320, eps=1e-05, momentum=0.1, affine=True, track_running_stats=True)
), 'cnn1.features.7.0.block.3.0': Conv2d(1152, 320, kernel_size=(1, 1), stride=(1, 1), bias=False), 'cnn1.features.7.0.block.3.1': BatchNorm2d(320, eps=1e-05, momentum=0.1, affine=True, track_running_stats=True), 'cnn1.features.7.0.stochastic_depth': StochasticDepth(p=0.1826086956521739, mode=row), 'cnn1.features.7.1': MBConv(
  (block): Sequential(
    (0): ConvNormActivation(
      (0): Conv2d(320, 1920, kernel_size=(1, 1), stride=(1, 1), bias=False)
      (1): BatchNorm2d(1920, eps=1e-05, momentum=0.1, affine=True, track_running_stats=True)
      (2): SiLU(inplace=True)
    )
    (1): ConvNormActivation(
      (0): Conv2d(1920, 1920, kernel_size=(3, 3), stride=(1, 1), padding=(1, 1), groups=1920, bias=False)
      (1): BatchNorm2d(1920, eps=1e-05, momentum=0.1, affine=True, track_running_stats=True)
      (2): SiLU(inplace=True)
    )
    (2): SqueezeExcitation(
      (avgpool): AdaptiveAvgPool2d(output_size=1)
      (fc1): Conv2d(1920, 80, kernel_size=(1, 1), stride=(1, 1))
      (fc2): Conv2d(80, 1920, kernel_size=(1, 1), stride=(1, 1))
      (activation): SiLU(inplace=True)
      (scale_activation): Sigmoid()
    )
    (3): ConvNormActivation(
      (0): Conv2d(1920, 320, kernel_size=(1, 1), stride=(1, 1), bias=False)
      (1): BatchNorm2d(320, eps=1e-05, momentum=0.1, affine=True, track_running_stats=True)
    )
  )
  (stochastic_depth): StochasticDepth(p=0.19130434782608696, mode=row)
), 'cnn1.features.7.1.block': Sequential(
  (0): ConvNormActivation(
    (0): Conv2d(320, 1920, kernel_size=(1, 1), stride=(1, 1), bias=False)
    (1): BatchNorm2d(1920, eps=1e-05, momentum=0.1, affine=True, track_running_stats=True)
    (2): SiLU(inplace=True)
  )
  (1): ConvNormActivation(
    (0): Conv2d(1920, 1920, kernel_size=(3, 3), stride=(1, 1), padding=(1, 1), groups=1920, bias=False)
    (1): BatchNorm2d(1920, eps=1e-05, momentum=0.1, affine=True, track_running_stats=True)
    (2): SiLU(inplace=True)
  )
  (2): SqueezeExcitation(
    (avgpool): AdaptiveAvgPool2d(output_size=1)
    (fc1): Conv2d(1920, 80, kernel_size=(1, 1), stride=(1, 1))
    (fc2): Conv2d(80, 1920, kernel_size=(1, 1), stride=(1, 1))
    (activation): SiLU(inplace=True)
    (scale_activation): Sigmoid()
  )
  (3): ConvNormActivation(
    (0): Conv2d(1920, 320, kernel_size=(1, 1), stride=(1, 1), bias=False)
    (1): BatchNorm2d(320, eps=1e-05, momentum=0.1, affine=True, track_running_stats=True)
  )
), 'cnn1.features.7.1.block.0': ConvNormActivation(
  (0): Conv2d(320, 1920, kernel_size=(1, 1), stride=(1, 1), bias=False)
  (1): BatchNorm2d(1920, eps=1e-05, momentum=0.1, affine=True, track_running_stats=True)
  (2): SiLU(inplace=True)
), 'cnn1.features.7.1.block.0.0': Conv2d(320, 1920, kernel_size=(1, 1), stride=(1, 1), bias=False), 'cnn1.features.7.1.block.0.1': BatchNorm2d(1920, eps=1e-05, momentum=0.1, affine=True, track_running_stats=True), 'cnn1.features.7.1.block.0.2': SiLU(inplace=True), 'cnn1.features.7.1.block.1': ConvNormActivation(
  (0): Conv2d(1920, 1920, kernel_size=(3, 3), stride=(1, 1), padding=(1, 1), groups=1920, bias=False)
  (1): BatchNorm2d(1920, eps=1e-05, momentum=0.1, affine=True, track_running_stats=True)
  (2): SiLU(inplace=True)
), 'cnn1.features.7.1.block.1.0': Conv2d(1920, 1920, kernel_size=(3, 3), stride=(1, 1), padding=(1, 1), groups=1920, bias=False), 'cnn1.features.7.1.block.1.1': BatchNorm2d(1920, eps=1e-05, momentum=0.1, affine=True, track_running_stats=True), 'cnn1.features.7.1.block.1.2': SiLU(inplace=True), 'cnn1.features.7.1.block.2': SqueezeExcitation(
  (avgpool): AdaptiveAvgPool2d(output_size=1)
  (fc1): Conv2d(1920, 80, kernel_size=(1, 1), stride=(1, 1))
  (fc2): Conv2d(80, 1920, kernel_size=(1, 1), stride=(1, 1))
  (activation): SiLU(inplace=True)
  (scale_activation): Sigmoid()
), 'cnn1.features.7.1.block.2.avgpool': AdaptiveAvgPool2d(output_size=1), 'cnn1.features.7.1.block.2.fc1': Conv2d(1920, 80, kernel_size=(1, 1), stride=(1, 1)), 'cnn1.features.7.1.block.2.fc2': Conv2d(80, 1920, kernel_size=(1, 1), stride=(1, 1)), 'cnn1.features.7.1.block.2.activation': SiLU(inplace=True), 'cnn1.features.7.1.block.2.scale_activation': Sigmoid(), 'cnn1.features.7.1.block.3': ConvNormActivation(
  (0): Conv2d(1920, 320, kernel_size=(1, 1), stride=(1, 1), bias=False)
  (1): BatchNorm2d(320, eps=1e-05, momentum=0.1, affine=True, track_running_stats=True)
), 'cnn1.features.7.1.block.3.0': Conv2d(1920, 320, kernel_size=(1, 1), stride=(1, 1), bias=False), 'cnn1.features.7.1.block.3.1': BatchNorm2d(320, eps=1e-05, momentum=0.1, affine=True, track_running_stats=True), 'cnn1.features.7.1.stochastic_depth': StochasticDepth(p=0.19130434782608696, mode=row), 'cnn1.features.8': ConvNormActivation(
  (0): Conv2d(320, 1280, kernel_size=(1, 1), stride=(1, 1), bias=False)
  (1): BatchNorm2d(1280, eps=1e-05, momentum=0.1, affine=True, track_running_stats=True)
  (2): SiLU(inplace=True)
), 'cnn1.features.8.0': Conv2d(320, 1280, kernel_size=(1, 1), stride=(1, 1), bias=False), 'cnn1.features.8.1': BatchNorm2d(1280, eps=1e-05, momentum=0.1, affine=True, track_running_stats=True), 'cnn1.features.8.2': SiLU(inplace=True), 'cnn1.avgpool': AdaptiveAvgPool2d(output_size=1), 'cnn1.classifier': Sequential(
  (0): Dropout(p=0.2, inplace=True)
  (1): Identity()
), 'cnn1.classifier.0': Dropout(p=0.2, inplace=True), 'cnn1.classifier.1': Identity(), 'fc1': Sequential(
  (0): Linear(in_features=1280, out_features=1024, bias=True)
  (1): ReLU(inplace=True)
  (2): Dropout2d(p=0.5, inplace=False)
  (3): Linear(in_features=1024, out_features=128, bias=True)
  (4): ReLU(inplace=True)
  (5): Linear(in_features=128, out_features=2, bias=True)
), 'fc1.0': Linear(in_features=1280, out_features=1024, bias=True), 'fc1.1': ReLU(inplace=True), 'fc1.2': Dropout2d(p=0.5, inplace=False), 'fc1.3': Linear(in_features=1024, out_features=128, bias=True), 'fc1.4': ReLU(inplace=True), 'fc1.5': Linear(in_features=128, out_features=2, bias=True)}